models/CartPole-v1-10.pth (torch, 72334 bytes, 6 tensors)

fc1.weight f4 [128, 4]
000000 c6 52 02 3f 87 69 c5 3d 63 53 91 3e 7c 28 89 3e
       0.5090755 0.09639268 0.28383932 0.267887
000010 ec 17 8a be 2a 7f a2 3e 78 f8 67 3f 51 9e fa 3e
       -0.26971376 0.31737643 0.9061351 0.4894891
000020 ed fe 55 3d 30 6c 47 3f 1f 8a 31 3e 9c ab f5 be
       0.05224507 0.77899456 0.17337845 -0.4798249
000030 f8 00 50 3f 97 db 8c 3f d0 2f cf bc 08 42 0d bf
       0.8125148 1.1004514 -0.025291353 -0.5517888
000040 e3 16 a9 bd a2 35 97 3f 0e d5 74 3d 21 47 71 bf
       -0.082563184 1.1813242 0.059773497 -0.9424916
000050 95 7f 1b be 0d 0f 63 bf 52 a1 01 bf 3d 5b 2c 3f
       -0.15185387 -0.8869484 -0.5063678 0.6732672
000060 b5 dc e5 bd 45 cd 32 3e b3 b0 8f 3e cc b1 c9 3e
       -0.11223737 0.17461117 0.28064498 0.3939346
000070 98 96 82 3e 0b 77 2d 3e ac 42 2b 3f a3 01 87 3d
       0.2550552 0.16939943 0.6689861 0.06592109
000080 a4 85 9f 3e 92 68 e8 be 74 dd bc 3e 2c 2e b2 be
       0.31156647 -0.4539228 0.36887705 -0.3480085
000090 b4 44 72 be a0 f4 b9 bc c0 88 41 3c d0 ad 30 3e
       -0.2365902 -0.022699654 0.011812389 0.17253804
0000a0 34 52 24 be 2c 49 2e bf f1 27 1f bf 81 b0 a5 3e
       -0.16046983 -0.680804 -0.6217032 0.32361224
0000b0 87 8e e7 3d 27 42 8b 3d eb 51 19 3f e5 16 d7 3e
       0.11306482 0.06799727 0.5989062 0.42009655
0000c0 a1 56 91 be a3 f4 01 bf 2d c6 8d be 5c 25 95 3e
       -0.28386405 -0.5076391 -0.2769026 0.29130065
0000d0 70 c7 fa be 9c 01 cb be 00 14 a9 bd 9c a4 5b be
       -0.48980284 -0.39649665 -0.08255768 -0.21449512
0000e0 ce 9c 32 3f 2d 81 67 3f 44 48 c5 be 5b d8 62 bd
       0.69770515 0.9043148 -0.38531697 -0.055382114
0000f0 80 47 33 be 02 ee a9 3f 37 b3 00 3e 80 f3 70 bf
       -0.17507744 1.3275759 0.12568365 -0.9412155
000100 3e 80 98 bd 15 d8 95 3f 9f fd 11 bc e9 ea 63 bf
       -0.07446335 1.1706568 -0.008910566 -0.8903032
000110 4c a5 1b be e6 d7 d1 be cc 99 74 3e ea 02 95 be
       -0.15199775 -0.4098503 0.23886794 -0.29103786
000120 19 f3 79 3e 2d 8c 88 3f c1 5f f5 bd 7f 1a 4b bf
       0.2440914 1.0667778 -0.11981154 -0.79337305
000130 1a cc c8 3e 7d aa db 3e f7 db 2d bd c0 79 f8 be
       0.39218217 0.4290351 -0.042446103 -0.48530388
000140 c6 b2 3b 3d 57 1b 3b 3f ce b9 0f 3e bc 6c 96 3e
       0.04582479 0.7308859 0.14035723 0.29379833
000150 39 fd a4 be da 48 80 bf de e4 e3 bd bc 02 05 3f
       -0.32224444 -1.0022233 -0.11127637 0.519573
000160 6e 7f 8c 3e 86 43 6c 3f 3f a1 0b 3e 69 4b 16 3d
       0.2744097 0.9229053 0.13635729 0.03669301
000170 19 8e 8a bd 1d f1 06 3e 79 a1 25 3f 38 aa b9 3e
       -0.06765384 0.13177915 0.6469951 0.3626268
000180 0b f7 3f 3f 8e 9f c6 3e e6 85 00 3f 6c 67 13 bf
       0.7498633 0.38793606 0.5020431 -0.57579684
000190 51 17 8e 3e 01 c7 37 3f db 44 74 bd ae 87 e8 be
       0.27752164 0.7178803 -0.05963598 -0.45416015
0001a0 03 5b 52 3e 3b 58 2f be ab 8b 35 bf 0b ca 47 bf
       0.2054253 -0.17123501 -0.7091624 -0.7804267
0001b0 6d e4 06 be cf b7 a4 3e 6c 07 50 be 36 e3 03 bf
       -0.13173075 0.32171485 -0.20315331 -0.5151857
0001c0 7d 1d b5 3d c1 13 0d be 21 9a dc bd e8 86 a2 3d
       0.08843515 -0.13777067 -0.10771585 0.079358876
0001d0 c8 be 30 3e e9 ad 53 3e 5c 08 69 3e d3 0b 2e be
       0.17260277 0.2067181 0.22757095 -0.16996698
0001e0 68 a4 2c bf ac d1 b3 3e 65 01 9a 3d 23 64 db 3e
       -0.67438364 0.35120904 0.07519797 0.42849836
0001f0 5a 23 4a 3f 96 81 cc 3e b4 fe fe 3e 4d 47 2f bf
       0.7896019 0.39942616 0.49803698 -0.6846817
000200 b5 cc 23 3f 7e 28 54 bf f1 9b d6 bd 4c b9 1f 3f
       0.63984233 -0.82874286 -0.10478962 0.62392116
000210 41 c6 ad bd 6a 76 9b 3e c0 9d 64 b8 d7 20 df be
       -0.084850796 0.3036378 -5.4506352e-05 -0.43579742
000220 81 68 a5 3e 98 b5 06 3e 44 61 be be 53 ef e6 3e
       0.32306293 0.1315521 -0.37183583 0.45104465
000230 09 51 aa 3e aa 75 13 3f 24 ad b5 be 1e f4 88 bd
       0.3326495 0.57601416 -0.35483658 -0.06687187
000240 69 e3 e7 3e c9 88 59 3f 7b f9 e2 3e bd 2f 7e bf
       0.45290688 0.8497434 0.44330963 -0.9929159
000250 85 b3 78 be 20 8e 57 3f f4 a7 9b 3d 04 a3 6d bf
       -0.24287231 0.8420124 0.07600394 -0.9282687
000260 44 3b ab 3e dc 73 fc 3e 1a 3e e8 3e fc 38 e3 3e
       0.33443654 0.49307144 0.4535988 0.44379413
000270 91 09 b5 3e df a8 06 3f f9 55 ef 3e 17 6a 70 be
       0.3535886 0.52601427 0.4674528 -0.2347797
000280 cb de 5b 3f 31 44 5f 3f 31 d2 9a bd 72 9e 7f be
       0.8588683 0.87213427 -0.07559622 -0.24962786
000290 54 fb f3 3e 1a 75 8f 3e e1 9c f1 3e 76 d5 14 bf
       0.47652686 0.2801903 0.47190002 -0.58138216
0002a0 08 84 83 3e 0e 68 9d 3f 4e e1 82 be 20 7c 35 be
       0.2568667 1.229738 -0.2556252 -0.17723131
0002b0 98 c1 52 3e e1 e7 6d bf d6 c0 05 3e a8 54 e3 3e
       0.20581663 -0.92931944 0.13061842 0.44400525
0002c0 1d 51 da 3e 00 9c 82 3f 2f 0c ce 3e c7 99 57 bf
       0.4264001 1.0203857 0.4024367 -0.8421902
0002d0 cd b2 37 3f 2a f5 4b 3f 70 f8 dd 3e 53 28 5d bc
       0.71757203 0.79670966 0.43353605 -0.013498384
0002e0 48 8b 23 3e 42 b4 dd be 54 53 c4 3e 82 c1 c7 be
       0.159711 -0.43301588 0.38344824 -0.39014822
0002f0 79 66 73 3e b4 91 1d be 2c 3f d5 3e 12 46 6d 3d
       0.23769559 -0.15387613 0.4164976 0.057928152
000300 ff ff 32 bf 03 db 7e 3e 0d 01 33 3f bc dc 0b 3f
       -0.6992187 0.24888234 0.6992348 0.5463369
000310 f8 46 55 3e 00 75 fd 3b e4 81 94 be a0 57 9d 3e
       0.20827854 0.0077348948 -0.2900535 0.30730915
000320 64 d7 9e 3e d8 34 e5 bd 40 2b 86 3c e8 d2 21 3e
       0.31023705 -0.1119172 0.016378045 0.1580311
000330 b2 51 bb bd 9c 1f 5b 3f 49 6c e4 3e a0 20 14 3e
       -0.091464415 0.8559511 0.44613865 0.1446557
000340 8b d7 33 be 55 2d cb be af 62 41 be 13 a7 ce 3e
       -0.17562692 -0.39683023 -0.18885301 0.40361843
000350 af 72 28 bf f7 19 6d bf c2 31 e1 bc 87 d7 70 3e
       -0.65799993 -0.92617744 -0.027489547 0.23519717
000360 8f c0 30 3f 1b 1b 18 3e 74 6e 19 be 0e 8e 31 be
       0.6904382 0.1485409 -0.14983541 -0.17339346
000370 c7 22 6c 3e a3 89 fc 3d 27 54 9a 3e 3c b4 05 bf
       0.23060142 0.123309396 0.30142328 -0.5222814
000380 bc de aa 3e a4 2e 93 be 5c 06 1a be 10 fb 98 bd
       0.33373058 -0.2874652 -0.15041488 -0.07469761
000390 4a 34 8d 3e d1 40 a4 3d d2 f4 d8 3d 0d 78 18 bf
       0.27578956 0.08020175 0.10593571 -0.5955818
0003a0 af 8f 75 bd ae 47 b7 3f 93 e9 ab 3d e5 3f 58 bf
       -0.05995148 1.431875 0.0839416 -0.84472495
0003b0 1b 2a 53 be 5c 33 1b 3e da 49 d0 3e 55 03 63 3e
       -0.2062153 0.15156311 0.40681344 0.2216924
0003c0 29 c5 17 3f bc ae dd 3d bd b0 0c be 72 df d9 be
       0.5928522 0.108243436 -0.13739295 -0.42553288
0003d0 e2 f1 06 3d 37 90 9f bf 41 07 bd be 20 7d d7 3e
       0.03294552 -1.2465886 -0.36919597 0.4208765
0003e0 69 cb 9d be b2 5a 58 be 0a b9 b6 3d ac 00 1d be
       -0.30819252 -0.21128348 0.08922012 -0.15332288
0003f0 b3 09 f0 bd 71 ab 10 3a 93 76 8a 3e 52 36 0a bf
       -0.117206 0.0005518711 0.2704359 -0.53989136

fc1.bias f4 [128]
000000 56 bc dc 3f 46 9f 69 be e3 f7 cd 3f 46 fb f7 3f
       1.7244976 -0.22814664 1.6091274 1.9373558
000010 8d 6d 95 3f d0 6d 48 bd 30 60 f1 3f 98 42 bf 3c
       1.1674057 -0.04893285 1.8857479 0.023347184
000020 5e ce 94 be a6 cb fc be c2 da 96 bd d6 0d ff 3f
       -0.29063696 -0.4937412 -0.073659435 1.9926097
000030 3b b0 96 3f 8c 23 8f be 01 12 f8 3f 70 1d a8 3f
       1.1772531 -0.27956808 1.9380494 1.3133984
000040 bf 88 fc 3f b0 84 9f be 6f 79 04 40 90 da 31 be
       1.9729232 -0.3115592 2.0699117 -0.17368531
000050 8d 7c e0 3f 75 41 82 3b 33 b2 dc 3f 67 5a dc 3f
       1.753801 0.0039750882 1.7241882 1.7215089
000060 c0 af 02 40 c6 6f e6 3f a1 a6 12 bb 6f 53 ff 3f
       2.041977 1.800286 -0.002237715 1.9947337
000070 67 69 c1 3f ea 55 d5 3f 6d 43 10 be 24 90 f1 3f
       1.5110291 1.6666844 -0.14088221 1.8872113
000080 3f 9f 30 3e 63 31 eb 3f 87 91 cd 3f da 65 83 be
       0.17248248 1.8374447 1.6060036 -0.25663644
000090 87 ce bc 3f 00 3c a2 3f ae d3 d7 be 63 1e d4 3f
       1.4750527 1.267456 -0.42153686 1.6571773
0000a0 b6 5d dc 3f 42 32 03 40 a2 9f c7 3f 2b 84 cd bd
       1.7216098 2.0499425 1.5595591 -0.10034975
0000b0 e6 2a b5 3f 61 58 05 40 58 89 82 be 4f 40 5f be
       1.4153717 2.0835192 -0.2549541 -0.21801876
0000c0 88 51 a3 be 3a d6 a7 be 32 6a ec be 12 ec d9 3f
       -0.3189814 -0.3278063 -0.4617477 1.7025168
0000d0 b4 54 b4 3f df 06 85 3e 25 7f 00 40 af 61 e2 3f
       1.4088349 0.25981805 2.0077603 1.7686061
0000e0 68 a2 d6 be de 28 01 40 2f 73 d0 3f bd e2 ff 3f
       -0.4192078 2.0181193 1.6285151 1.999107
0000f0 45 4d f1 3f b1 ab 0c 3f 87 2a bb 3f e5 10 e0 3f
       1.8851706 0.5494948 1.4622353 1.7505156
000100 c0 d4 e7 3f b6 96 bb 3f cf 44 ee 3f bd 54 e2 3f
       1.8111801 1.4655368 1.8614749 1.768211
000110 0f 23 03 40 00 94 c0 be de b1 96 be d3 16 d7 be
       2.0490148 -0.37612915 -0.29432577 -0.420096
000120 9d dc 02 3f 74 1e 93 be 7f 1e b3 3d 8b e3 c4 3f
       0.5111788 -0.2873417 0.08746051 1.5381941
000130 8e c5 e2 3f 05 a6 fe 3f cb 43 ea 3f 6f 67 fb 3f
       1.7716539 1.9894415 1.8301939 1.964094
000140 57 9f 88 3d 13 fb f2 3f 62 01 e2 3f 08 f1 ff 3f
       0.06671017 1.8982872 1.7656672 1.9995432
000150 a9 7e f4 3f b4 ed 49 be c6 2d c1 3f b5 2f ce be
       1.9101154 -0.19719583 1.5092094 -0.40270773
000160 0c 07 3b be 23 71 05 40 23 0a 20 3d 46 84 91 3f
       -0.18264407 2.0850303 0.039072167 1.1368492
000170 7a 84 db 3f 24 37 03 40 7a 0e 7a 3f ee e9 fc 3f
       1.7149804 2.0502405 0.9767834 1.975889
000180 06 51 00 40 b8 24 30 be c4 bf 01 40 4f 58 df 3f
       2.0049453 -0.17201507 2.0273294 1.7448825
000190 96 d2 00 be c4 a9 c0 3f 0d c1 02 40 b6 3d f9 3f
       -0.12580332 1.5051808 2.043033 1.9471958
0001a0 b4 00 05 40 46 ac da 3f 33 60 c9 3f 13 c9 ce bd
       2.078168 1.7083824 1.5732483 -0.100969456
0001b0 a4 1d ed 3e 73 e7 d1 3f a7 28 21 bd a4 ec 05 40
       0.46311677 1.6398758 -0.03934541 2.0925684
0001c0 f0 f1 e4 3f 6e cd db 3f cd 87 cb 3f b2 ff 8d be
       1.7886333 1.7172067 1.5900818 -0.27734143
0001d0 7b 26 d6 3f d3 f7 e5 3f ae ef df 3f 03 cc f9 3f
       1.6730493 1.7966255 1.749502 1.9515384
0001e0 6b 6e 04 40 e2 f1 05 40 6f c9 ca 3f 6c 39 6e be
       2.0692394 2.0928884 1.5842723 -0.23264092
0001f0 11 37 24 3f 6e d3 b4 3f 6e 80 c6 3f f5 66 a1 3f
       0.64146525 1.4127023 1.5507944 1.2609545

fc2.weight f4 [128, 128]
000000 8b 5f 66 bd ff 14 b3 3d b3 4c 87 3d 6d f3 85 bc
       -0.05624346 0.08744239 0.06606426 -0.016351426
000010 58 6d 0e 3d a7 08 ab bd 47 a0 9a bd ac 1d 91 bc
       0.034772247 -0.0835126 -0.07550102 -0.017714344
000020 cc 04 b9 3c 40 19 b7 bc a8 cb 92 bc 38 85 6f bc
       0.022585295 -0.022350907 -0.017919376 -0.014619164
000030 b8 34 ca 3c 7c 89 aa bd 65 97 2a bd 61 05 31 3d
       0.024683341 -0.08327004 -0.041648287 0.04321802
000040 08 25 a2 3c 94 50 67 bd da 12 02 bd 8f 22 39 bd
       0.019793049 -0.05647333 -0.03175626 -0.045198973
000050 9d ab 0f 3d 14 d2 69 bd 07 c9 14 bd 8b 05 14 bd
       0.035075773 -0.05708511 -0.036324527 -0.0361381
000060 c9 61 d0 bd 45 ef 3f bc 18 ab be 3c 70 77 be bc
       -0.10174901 -0.011714761 0.023274943 -0.023250312
000070 20 39 8a bb e3 1f 95 bd c0 09 f7 3a 19 d0 86 bd
       -0.0042182356 -0.072814725 0.001884751 -0.0658266
000080 f0 76 52 bd b2 33 e6 bb 28 59 5e bc 80 c4 e4 bb
       -0.05138296 -0.0070252055 -0.013571061 -0.0069814324
000090 20 27 5f bd 9d ea 3d 3d a3 59 9e 3d d7 40 9e bc
       -0.054480672 0.046366323 0.077319406 -0.019318027
0000a0 16 91 05 bc 8f 3e 8b bd 88 f1 93 bd 1e 63 4e 3d
       -0.008152267 -0.067990415 -0.07223803 0.050387494
0000b0 0c 9f 96 bd d7 1c 86 3d 52 c2 5b bd 0e 1b 50 3d
       -0.073545545 0.065484695 -0.053652115 0.05080705
0000c0 96 d7 0e 3d a0 07 17 bc 95 96 83 3d 89 bd 4e ba
       0.034873568 -0.009218127 0.064252056 -0.00078865193
0000d0 30 d2 d3 3c 28 70 44 bc 3e 35 a4 bd 22 7e 03 3d
       0.025857061 -0.011989631 -0.08017968 0.03210271
0000e0 78 f5 f2 3c 77 2e 74 3d 7b 57 99 3c 36 ed d0 bd
       0.029658064 0.059614625 0.018718472 -0.102014944
0000f0 3d c8 b7 3c 03 c1 86 3d 90 88 14 3c 58 2d 57 3d
       0.022434348 0.06579783 0.009065762 0.052533478
000100 6e 2c 04 bd 98 63 b2 bd 0b fa 80 3d 14 87 b6 bc
       -0.032268934 -0.08710402 0.06297692 -0.022281207
000110 82 ca ac 3c f0 a5 9a 3b 34 8b 83 bc 67 6d 86 3d
       0.021092657 0.0047194883 -0.016057588 0.065638356
000120 8d c3 5a bd 22 9a 66 3d de c6 61 3d 8d 81 0e bd
       -0.053409148 0.056299336 0.055121295 -0.034791518
000130 cd 18 93 3d f8 74 d1 bd 55 85 3f bd 58 71 a2 bd
       0.07182465 -0.10227388 -0.046758015 -0.07931775
000140 08 44 27 bc 84 4a 36 3d 6d 2b 24 bd de 78 74 3d
       -0.010209091 0.044504657 -0.040080477 0.05968558
000150 a2 05 9f bd 10 eb 9e 3c c8 1f 31 3c 1c 94 e5 bc
       -0.07764746 0.019399196 0.0108108 -0.028024726
000160 3c d6 ec 3c 83 fd 35 bc e0 c8 4c bd 4d 50 e7 3c
       0.028910749 -0.011107805 -0.049996257 0.028236533
000170 8f b1 de 3c 4c 48 46 bd 9d e1 61 bd 51 6e 0d 3c
       0.027184276 -0.04840879 -0.055146802 0.0086322585
000180 b7 61 6a bc f4 a8 07 3d 6d df aa bd 3b 82 ad 3a
       -0.014305524 0.03312011 -0.08343396 0.0013237664
000190 27 5a b3 3d f2 b9 9b bd 32 93 35 3d b4 5a 46 3d
       0.087574296 -0.07603826 0.04432983 0.048426345
0001a0 f2 a5 18 bd 10 b0 15 3c 53 4b 5b bd 5c 8a a3 bc
       -0.037267633 0.009136215 -0.05353863 -0.019963436
0001b0 eb 48 a3 3d 96 57 13 3d f2 d6 8f bd 23 04 3a 3d
       0.079728924 0.0359722 -0.070234194 0.0454141
0001c0 0f 20 8d 3c 25 b6 2c 3d 90 c0 b7 3b 4a 07 79 bd
       0.0172272 0.042165894 0.005607672 -0.060797967
0001d0 3e 37 0b 3d f9 4a 2d bd 08 28 60 bd eb 46 cd bd
       0.03398823 -0.042307828 -0.054725677 -0.10023292
0001e0 72 7f 84 bc 23 b3 3b bd cc 7b 93 bd 7c c6 82 bd
       -0.016174052 -0.045825135 -0.07201347 -0.06385514
0001f0 b0 0e e8 3c 20 6e a0 bd 4f a2 47 bc bc 2c d5 bd
       0.028327316 -0.07833505 -0.0121846935 -0.10408923
000200 8b 4e 9a 3f 74 44 f2 be 09 f1 ba 3f 7c 9a b2 3f
       1.205522 -0.4731785 1.4604808 1.3953395
000210 3b d7 89 3f 23 bd 42 3f 1d 0c 92 3f a2 3a 18 3e
       1.0768808 0.7606985 1.1409947 0.14866117
000220 17 01 0e bd 6e a2 7e 3d 4e bf d2 3e 0f 68 96 3f
       -0.034669008 0.062166624 0.4116158 1.1750506
000230 06 3e 9a 3f f6 f2 49 3d 89 12 ba 3f a2 27 97 3f
       1.2050178 0.04930397 1.4536906 1.180897
000240 31 2d b1 3f 40 77 31 3b 4e 33 b5 3f 0a 6d 81 be
       1.3841916 0.0027079135 1.4156282 -0.25278503
000250 c6 4a 99 3f b6 80 fa 3e f5 17 b6 3f 56 86 84 3f
       1.1975944 0.48926324 1.4226061 1.0353496
000260 87 5a c5 3f 31 57 bf 3f 85 fa b6 be 83 4f cb 3f
       1.5418252 1.4948484 -0.35738006 1.588364
000270 10 ff 97 3f b4 cd b4 3f c2 2a c6 be b8 eb c5 3f
       1.1874714 1.4125276 -0.38704497 1.5462561
000280 b9 3b 2e 3f e1 d2 c3 3f fe 66 8f 3f 50 d1 eb bd
       0.6805988 1.529873 1.1203306 -0.115145326
000290 9c ff 9c 3f 5e 0c 95 3f bd 58 99 bd 32 22 b0 3f
       1.2265506 1.1644399 -0.074876286 1.3760436
0002a0 fd 97 c1 3f 7b c4 b4 3f f7 83 c6 3f 77 55 3a 3f
       1.5124508 1.4122461 1.5509022 0.7278666
0002b0 77 63 9d 3f d8 e8 b5 3f 98 ae 9f 3c 32 ce 0c bd
       1.2295979 1.4211683 0.019492432 -0.03437633
0002c0 9a 52 cd be ce f8 7e 3d 51 74 29 bd 1a 8a 9f 3f
       -0.40102082 0.062248997 -0.041370694 1.246402
0002d0 1a e3 95 3f be 1c c4 3e 67 48 ae 3f 90 76 ce 3f
       1.1709931 0.3830318 1.3615845 1.6129932
0002e0 42 b2 74 3d 02 39 c0 3f 4f 57 ac 3f 50 f4 a4 3f
       0.059740312 1.5017397 1.3464144 1.2887058
0002f0 1b 40 b9 3f 3c 82 71 3f a8 be aa 3f 7b 12 ca 3f
       1.4472688 0.94339347 1.3339434 1.578689
000300 1e 3f ba 3f 0a 6f 9f 3f b3 d6 ba 3f 41 35 c2 3f
       1.4550512 1.2455761 1.4596771 1.5172502
000310 13 bf bd 3f 30 47 5b bc eb 95 02 bd c0 a8 4e bd
       1.4823936 -0.013383672 -0.031881254 -0.0504539
000320 65 3c 35 3f 48 09 a4 bc be d5 3b bf a2 30 95 3f
       0.7079528 -0.020023957 -0.7337302 1.1655467
000330 96 2d 96 3f ed 5d c2 3f 84 12 b9 3f 4d 47 c1 3f
       1.1732662 1.5184914 1.4458776 1.5099884
000340 de 72 14 bf cb c1 b2 3f f5 b1 c7 3f 7f 8f b4 3f
       -0.57987773 1.3965391 1.5601183 1.4106292
000350 ea 9a 9b 3f aa d4 6a 3d 3c 01 9f 3f 30 2f 22 bc
       1.2156651 0.05733172 1.2422252 -0.009898946
000360 e0 51 aa 3b a2 33 ae 3f b3 1b 2b bf 4f ba 81 3f
       0.0051977485 1.3609507 -0.6683914 1.0134982
000370 7d ec 93 3f 95 08 b4 3f ce 4b 78 3f 80 fb c0 3f
       1.1556545 1.4065119 0.9699067 1.5076752
000380 ce 51 af 3f c8 19 95 bc a6 c7 ad 3f ee dd 99 3f
       1.369684 -0.01820077 1.3576553 1.2020853
000390 26 f0 17 bf 0a 28 8c 3f fd dc b3 3f bd 44 a9 3f
       -0.5935081 1.0949719 1.4051815 1.3224102
0003a0 d8 0a b8 3f ad 1e 8e 3f e4 4f aa 3f ff 60 da be
       1.4378309 1.1103112 1.3305631 -0.42652127
0003b0 f0 b5 c1 3e 3a f0 8e 3f a9 a9 14 bf 73 da ae 3f
       0.3783412 1.1167061 -0.5807138 1.3660415
0003c0 28 b0 ad 3f 60 ca a5 3f 75 00 9f 3f ab 05 b1 3d
       1.3569384 1.2952385 1.2422014 0.08643659
0003d0 d0 7f a4 3f 5d 16 a1 3f 81 de ae 3f 21 9d c5 3f
       1.2851505 1.258495 1.3661653 1.5438577
0003e0 7f 9b b3 3f 45 f2 b3 3f 68 99 c0 3f d3 bc a6 bd
       1.4031829 1.405831 1.5046816 -0.08141484
0003f0 a9 32 84 3f 6d 7e 97 3f 91 2a 98 3f ff 82 85 3f
       1.032796 1.1835457 1.188799 1.0430602

fc2.bias f4 [128]
000000 97 fe 6c bd e5 52 b4 3f c0 26 aa bd 46 a6 98 bd
       -0.057859983 1.4087797 -0.08308172 -0.07453589
000010 ad d3 0b bc 46 95 07 bd 08 1b 64 3d 3f f0 ac 3f
       -0.008534354 -0.033101343 0.05568984 1.3510817
000020 88 ad ad 3f 67 fd af bd 6e 0a ba 3f 18 f6 a0 3f
       1.3568583 -0.085932545 1.4534433 1.2575102
000030 60 0f b2 3f 20 50 bb bd 10 de c3 bc a6 c5 b2 3f
       1.3910942 -0.09146142 -0.023909599 1.3966568
000040 41 6b ac bd 00 43 f8 3a 26 6e 40 3d 76 33 c0 3f
       -0.084188946 0.0018940866 0.046980046 1.5015705
000050 f8 a1 b1 3f 60 59 b9 3f df f7 ac 3f 09 aa b4 3f
       1.3877554 1.44804 1.3513144 1.4114391
000060 4f b2 b2 3f 6d 09 a1 3f 40 d0 4d bd 2a 60 05 bd
       1.3960665 1.2581002 -0.05024743 -0.032562412
000070 1f 52 b0 3f cd 64 1a 3d de ce bf 3f ea 13 a4 3f
       1.3775061 0.037693787 1.4985006 1.2818577
000080 af 16 bf 3c c8 98 67 bd c3 6a 3c ba 72 68 96 3f
       0.023326246 -0.056542188 -0.00071875396 1.1750624
000090 5b 64 cd bd 30 1d 0a bc f5 23 b5 3f df 18 bf 3f
       -0.10028907 -0.00842981 1.4151598 1.4929465
0000a0 bf 9b ab 3f 1f 4e bc 3f 7e cf e4 3c c8 fc b2 3f
       1.3406905 1.4711341 0.027930971 1.3983393
0000b0 e4 f8 ba 3c 53 86 bc 3f 61 36 fe 3c dc e1 95 3c
       0.022823758 1.4728492 0.03103179 0.018296175
0000c0 33 b1 b3 3f f1 08 b5 3f 7b 8d 00 bd 04 8e 94 3e
       1.4038452 1.4143354 -0.031384926 0.290146
0000d0 1b 7d c2 3f 20 d5 b3 3f 2a 36 b4 3f e9 cf a7 3f
       1.5194429 1.4049416 1.407903 1.3110324
0000e0 f4 31 c2 3f 97 8b a3 3f 7c a9 f7 3c 84 bd b3 3f
       1.5171494 1.2776974 0.030232184 1.404221
0000f0 28 65 40 bc 16 83 b3 3f d2 0e 99 3f 1d d5 b1 3f
       -0.0117428675 1.4024379 1.1957648 1.3893162
000100 01 21 b1 3f c4 0c 64 bd 22 7c b0 3f c7 80 5e bd
       1.3838197 -0.055676237 1.3787882 -0.05432203
000110 d7 08 6a 3d 90 45 b8 3f 61 10 9e 3f 12 ff b7 3f
       0.057137337 1.4396229 1.2348748 1.4374716
000120 8d c6 bf 3f e5 f8 bf 3f 9d cd 15 bd d5 bf bd 3f
       1.4982468 1.4997832 -0.03657304 1.4824167
000130 a8 13 b3 3f 2d f0 91 bd d0 a7 41 bd 8f 56 b3 3c
       1.3990374 -0.07125888 -0.04727918 0.02189186
000140 7e f0 57 bd 97 3f 4c 3e 24 a0 67 3c 0e 93 ba 3f
       -0.052719586 0.19946133 0.014137302 1.4576128
000150 34 00 c1 3f 2a 68 c3 3f c2 23 a3 bd ee 95 bb 3f
       1.5078187 1.5266163 -0.07965805 1.465513
000160 68 96 a9 bd c7 76 ba 3f 67 23 82 3f ac 5b 8d 3d
       -0.08280641 1.4567498 1.0167054 0.06902251
000170 c4 9e ad 3f 1b 6a a5 3f 94 60 2c bd ac ad ff bc
       1.3564076 1.2923006 -0.04208429 -0.031210743
000180 3c 74 b4 3f a8 de 99 bd 54 3d a1 3f 5c 42 a6 3f
       1.4097972 -0.075131714 1.2596841 1.2989001
000190 ce 77 16 3d 34 97 a9 bc b7 f6 b3 bd a2 94 c1 3f
       0.03673535 -0.020701982 -0.087872915 1.5123484
0001a0 0b 41 af 3f a3 80 66 3d 55 a5 26 3d 7a a1 67 bd
       1.3691725 0.05627502 0.040685017 -0.05655048
0001b0 d7 25 b3 3f e6 38 b3 3f 0d 64 96 3f 47 82 36 bd
       1.3995923 1.4001739 1.1749283 -0.044557836
0001c0 cd 9f 53 bd d1 30 32 bd ed 2c 6a bc df 88 82 bc
       -0.05166607 -0.043503586 -0.014292938 -0.015934406
0001d0 14 7b 4f bd d5 e4 b8 3f 3d e1 3c 3f c9 68 b0 3f
       -0.050654486 1.4444834 0.73781186 1.3781978
0001e0 b7 9d bc 3f 94 2b 97 3c 3a 80 12 3d 36 82 b1 3f
       1.4735631 0.018453397 0.035766818 1.3867862
0001f0 d1 ff 09 bc d1 93 84 bd 24 7a a7 3f fa 1b 46 3d
       -0.008422808 -0.06473506 1.3084149 0.048366524

output_layer.weight f4 [2, 128]
000000 aa cc 85 bc 6a 5e 84 3f 48 2d 29 bc bc 22 8f bd
       -0.016332943 1.0341313 -0.010325737 -0.06989047
000010 63 2f 2a bd e8 0e 6f 3c 16 0b 98 bd cc 7e 9d 3f
       -0.041549098 0.014590956 -0.074239895 1.230432
000020 12 20 76 3f ae 08 42 3d 67 45 8e 3f 62 50 a7 3f
       0.96142685 0.04737156 1.111493 1.3071406
000030 c4 06 80 3f ed 30 7b bc 84 0a 94 bd 13 fb 7c 3f
       1.0002065 -0.015331489 -0.07228568 0.9882061
000040 07 99 92 bd 65 a4 b3 3d d4 56 97 3c bf 74 8e 3f
       -0.07158094 0.0877159 0.01847402 1.1129378
000050 ef 81 95 3f f0 55 97 3f dc da 94 3f 2a 45 9c 3f
       1.1680278 1.1823101 1.162929 1.2208607
000060 81 79 91 3f f4 87 79 3f b9 f7 5a bd 4d 5b 13 bd
       1.1365205 0.97473073 -0.053458903 -0.035975743
000070 28 72 86 3f 70 e9 d9 bc bf 66 88 3f 5c 96 7b 3f
       1.0503588 -0.02660057 1.0656356 0.98276305
000080 f6 cf d2 bc 58 69 c3 bc 43 e7 e4 3b 8b 3c a1 3f
       -0.02573393 -0.023853943 0.0069855764 1.2596601
000090 00 a0 df 3b 66 c0 7b bd f5 35 92 3f 33 f4 8f 3f
       0.0068244934 -0.061462782 1.1422716 1.1246399
0000a0 6a f2 9b 3f 5c 73 91 3f 9b 00 dd 3d 51 84 9d 3f
       1.2183354 1.136333 0.10791131 1.2306005
0000b0 89 62 f0 bc a3 65 86 3f 73 de 4e bd be 4e 4a bd
       -0.02934386 1.0499767 -0.050505113 -0.0493915
0000c0 ac 86 85 3f 9c 58 89 3f 2e 5b 36 bd a4 d5 84 3e
       1.0431724 1.0730166 -0.04452055 0.25944245
0000d0 a8 55 8a 3f 50 25 9b 3f dc ad 8f 3f bb 87 97 3f
       1.080739 1.2120762 1.1224933 1.1838297
0000e0 11 2a 8e 3f 67 df 73 3f 80 c3 b2 3b 43 29 8d 3f
       1.1106588 0.9526276 0.0054554343 1.1028217
0000f0 44 9c ed bc f8 65 93 3f 7f 9e 9b 3f e7 81 8b 3f
       -0.029005177 1.1515493 1.2157744 1.0899018
000100 42 fb 95 3f 0b 8c 9c bd b1 a2 88 3f 78 79 d1 3c
       1.1717303 -0.076438986 1.067465 0.025570616
000110 1c 3c 8f 3d e0 92 89 3f 53 5b 9a 3f f6 8e 90 3f
       0.06993887 1.0747948 1.205912 1.1293628
000120 4d 9b 88 3f 96 22 86 3f 90 09 86 bd f7 04 97 3f
       1.0672394 1.0479305 -0.06544793 1.179839
000130 1c 7e 93 3f c5 bf 27 3d c3 3d bb 3d b9 d1 92 3d
       1.152286 0.04095437 0.091426395 0.07168908
000140 db b0 84 bd 3c d3 0d 3e c7 3e d9 bc 1e 4f 8f 3f
       -0.06479045 0.13850111 -0.026519192 1.119602
000150 c7 90 8f 3f 80 bd 8a 3f 3a 39 b9 3c 23 60 92 3f
       1.1216058 1.0839081 0.022610296 1.1435589
000160 cd d6 d7 bc f3 38 93 3f a7 d1 86 3f b8 ae 55 bd
       -0.026347542 1.1501755 1.0532731 -0.052168578
000170 46 35 8e 3f fa 53 7b 3f dc 98 fb 3c 81 7a c5 bb
       1.1110008 0.98175013 0.030712537 -0.0060265665
000180 72 9c 89 3f 40 5e c0 bb e2 41 97 3f d8 0b 98 3f
       1.0750868 -0.0058706105 1.1816981 1.1878614
000190 30 7d 55 bd 71 1d 81 bd 30 df 36 bd 48 a7 82 3f
       -0.05212134 -0.06304444 -0.044646442 1.02073
0001a0 a0 3e 82 3f f3 08 04 3c a1 ec ae bc f0 f6 e7 3b
       1.0175362 0.008058774 -0.021353068 0.007078998
0001b0 8d 4f 80 3f 6f be 95 3f 36 49 a3 3f 5a 33 18 bd
       1.0024277 1.1698741 1.2756717 -0.037158348
0001c0 6b db d4 3c 97 1e 85 3d 2a 32 15 bd 71 ac b5 3b
       0.025983533 0.06499975 -0.036424793 0.0055442383
0001d0 c0 78 8b bb 0e 54 90 3f 26 24 44 3f a6 c9 8a 3f
       -0.004256338 1.1275651 0.7661766 1.0842788
0001e0 0c 80 89 3f 38 87 1d 3c f9 ad 39 bd 63 97 87 3f
       1.0742202 0.009614758 -0.04533193 1.0593075
0001f0 e7 31 88 bd a0 a4 0a 3d 30 89 96 3f d0 2d 1b bd
       -0.06650143 0.033848405 1.1760616 -0.037885487
000200 c5 9e ab bd 74 6f bb 3f 20 27 a6 bb 64 be 7a bd
       -0.08379892 1.4643388 -0.005070582 -0.061216727
000210 99 52 d1 bc 80 9d d0 bc 71 72 9a 3b d2 8a 88 3f
       -0.025552081 -0.025465727 0.0047133495 1.0667365
000220 50 e8 bb 3f b2 81 8f bd 8c ea a5 3f b0 ea 72 3f
       1.4680271 -0.07007159 1.2962203 0.94889355
000230 68 c9 9d 3f d1 54 8d 3d e2 30 41 bd bd 0e be 3f
       1.2327089 0.06900943 -0.04716576 1.4848248
000240 a8 91 94 bc 50 11 e5 bb 28 c7 a3 bd 52 2e ac 3f
       -0.01813586 -0.006990589 -0.079969704 1.3451636
000250 6e 04 91 3f d1 c2 93 3f 52 90 9c 3f ef 60 92 3f
       1.1329477 1.1543828 1.2231543 1.1435832
000260 45 9a a3 3f a0 fe 92 3f 4c 7b 6f bc d0 ed 93 bd
       1.2781454 1.1483955 -0.014616799 -0.072230935
000270 63 1d b6 3f 5c 75 42 3d 86 4a a9 3f 5e 1a be 3f
       1.4227718 0.047475204 1.3225868 1.4851797
000280 e3 97 2a bc c0 fc 8f bd 7d 3e cf 3d a5 f8 7d 3f
       -0.010412189 -0.0703063 0.101193406 0.99207526
000290 8c bc 7b bc 0b 25 a1 3d 52 38 ad 3f 2b e7 a0 3f
       -0.015364777 0.078683935 1.3532813 1.2570547
0002a0 66 7d 91 3f 10 ed a3 3f 26 9e 84 bd 10 48 91 3f
       1.1366394 1.2806721 -0.06475477 1.1350117
0002b0 e9 0a 5a 3d 62 8a bb 3f 37 dd c2 bc c0 68 14 bd
       0.05323306 1.4651606 -0.023787124 -0.03623271
0002c0 49 00 ba 3f ff 4f af 3f 7e 2d 3f 3d d0 32 a9 3e
       1.4531337 1.3696288 0.046674244 0.3304658
0002d0 f4 c9 a7 3f ca ba af 3f 08 e6 b4 3f 51 fe 90 3f
       1.3108506 1.3728878 1.41327 1.1327611
0002e0 3e 38 a3 3f bb 4c be 3f c2 aa 0f bd 86 71 99 3f
       1.2751539 1.4867166 -0.035074957 1.198777
0002f0 e8 cc 6e 3c 46 97 9f 3f 63 b9 7a 3f ac 50 a4 3f
       0.014575221 1.246804 0.9793913 1.2837119
000300 5c d1 8c 3f 60 f0 50 3b b8 3b ba 3f 45 e7 56 bd
       1.1001391 0.0031881556 1.4549475 -0.05246665
000310 b2 46 58 bd 6a dc aa 3f 85 7e 84 3f 87 86 9f 3f
       -0.052801795 1.3348515 1.0351111 1.246293
000320 1c ae b8 3f 95 fc b5 3f f4 d2 85 3c d5 92 93 3f
       1.4428134 1.4217707 0.016335942 1.1529185
000330 7c c6 ac 3f 8a a8 96 bd e8 6b 4a bd 9f c7 6c bd
       1.3498073 -0.07356365 -0.049419314 -0.05780756
000340 3a d6 d5 bc f6 df 87 be fe 64 7e bd d5 81 ab 3f
       -0.026103128 -0.26538056 -0.062108032 1.3398997
000350 c9 40 a7 3f 25 c7 9e 3f d2 c0 2d 3d 5f 7c a7 3f
       1.3066646 1.2404524 0.042420216 1.308483
000360 40 0f f4 3b c0 83 9a 3f c0 58 4e 3f c6 35 44 bd
       0.007448107 1.2071457 0.8060417 -0.047902845
000370 94 00 a5 3f ff 16 be 3f be c0 3c 3d 33 7a a2 3d
       1.2890801 1.4850768 0.04608225 0.07933464
000380 b9 01 a7 3f bc 22 e4 bc 5e 4c 88 3f 46 46 8f 3f
       1.3047401 -0.027848594 1.0648305 1.1193321
000390 7a f1 fb bc 80 ae 31 bc b9 6a 8e bd 95 8a b6 3f
       -0.030754793 -0.010844827 -0.069539495 1.4261042
0003a0 ed 93 b3 3f 25 fb 3a 3d 0c b9 e3 3c 06 de b2 3c
       1.4029518 0.045649666 0.027798198 0.021834385
0003b0 3d 1b c1 3f 81 a3 91 3f ce 67 74 3f 60 9a 85 bc
       1.5086437 1.1378022 0.95470893 -0.016308963
0003c0 f2 9f cc bd 10 33 4d bc 61 60 1f 3d ec e3 98 3d
       -0.09991445 -0.012524381 0.038910273 0.07465348
0003d0 ac 94 a3 3c ed 80 a3 3f 69 d9 03 3f c3 a8 b2 3f
       0.019968353 1.277372 0.51503617 1.3957752
0003e0 77 d3 b0 3f 63 29 b4 3d c5 9f 79 bd 48 a1 b1 3f
       1.3814534 0.087969564 -0.060943384 1.3877344
0003f0 8e cc 98 bd ee 14 36 bd 72 bb 90 3f e0 e0 5a bb
       -0.07460891 -0.044453554 1.1307204 -0.0033398196

output_layer.bias f4 [2]
000000 e7 f8 7a 3f de 78 64 3f
       0.98036045 0.8924693
