models/CartPole-v1-100.pth (torch, 72344 bytes, 6 tensors)

fc1.weight f4 [128, 4]
00000000: 6c1f aa3e 7024 87bd c279 f6be 807c b5bb
00000010: e4ce 3cbf d994 90be 7622 8c3e 1e2c 03be
00000020: 65ce 5cbf 2fc3 c63c 5735 933d b695 943e
00000030: 9bd4 aebf 613d d73e f251 933f 92a0 963e
00000040: f2b0 38bf ab23 313e 7d0a 8b3f 77c7 8abd
00000050: 8111 58bf 20d9 c2be 09bb 0d3f fe5c f83e
00000060: 7884 ccbf 7fab 9fbe fbf5 9a3c 0336 093f
00000070: b4f8 b5be b732 a2be d6e6 2bbf 6658 06bf
00000080: edaf 87bf bc34 1b3c 3c11 943d a9ae bfbd
00000090: 6003 c6bf 9406 42bf f7b7 483f 8474 553f
000000a0: 9bdf c0bf 1a51 103e 3882 bcbd 637e f43c
000000b0: 1c31 91bf 9fc1 3fbf 0218 383e ac93 393f
000000c0: 80af a7bf 965a 3cbf cdde c9be 0aab 403f
000000d0: 31e8 6fbf 215a 39bc 4422 663d 72b6 2abd
000000e0: 9b51 17be 7403 4dbd 2b88 c43e e2ff 03be
000000f0: d816 81be 4942 6abe de67 4dbf cd1f eabe
00000100: 37a7 12bf a7bb 94be dd18 0e3f 08a6 b4bd
00000110: 549b b6bf 4b0d c1bc 1f94 863e b424 313f
00000120: 6ff7 edbf f4c2 a0bf 7b19 8ebd 5afe 883f
00000130: c9b9 55bf e9c7 9abe f7b5 4c3e ada7 09be
00000140: 0b5d 0abf 754b 2d3e 09f1 c5bd 2a82 1b3e
00000150: 78b2 d2bf 0b72 96be 9af2 053e 4899 12be
00000160: 1b19 003f 17f4 f9be 6e29 bd3a 1cab a9be
00000170: f913 3ebf 20ab 283e f4ce dc3e 7365 85bd
00000180: d84b 0ebf 52de ccbe c83d 673d b8d0 003f
00000190: b706 5bbf a411 a93e 338f bfbd e6e1 213e
000001a0: 1454 87bf 54cf db3d fdc5 063e ef31 133b
000001b0: 64dc c9bf e763 d5be ed15 18be fdd7 c43e
000001c0: 91a2 ddbf 5f51 2bbf 40e2 f7bd 8cea ec3e
000001d0: f045 b8bf a9ab f93e 3260 9bbe 883c aa3b
000001e0: 6d0d 29bf a6bb fbbe e1b0 3c3d d434 043f
000001f0: 6b08 9cbf a2d9 c93e 9993 83be 7297 7c3b
00000200: ee17 433f fd6c 5a3e b0c4 32bf 95d0 c63e
00000210: 9769 393e f52b 033e db5d c0be 6f5a 803d
00000220: 942b 6abf 77d0 f2bd a824 2e3f 06e0 1bbe
00000230: c9b2 81bf f677 a3bb 94d6 dd3e 68ba c1bd
00000240: 2d0f b1bf c1a3 143e 2ec2 6b3e 5281 ae3d
00000250: 80b4 cebf 308e 83be fa61 513f 7e27 2abe
00000260: f594 d73c 159c 0f3e c579 873e db69 fc3d
00000270: 8043 90bf a3f3 b8be ec45 99be e613 e3be
00000280: c6ca afbf 2b24 72bf c68a 75be fe28 833f
00000290: 0b86 dfbf 832e 63bf 42e4 253e 32ac 6abd
000002a0: 15ce 90bf 574d b9be dfe6 123f 5458 c43e
000002b0: e21c 58bf 8434 df3e 4ad6 36bd d4f4 2f3e
000002c0: 2e10 9ebf bb91 993e 7544 233f aa4b 903e
000002d0: 6953 3fbf 0f96 bbbe fe55 0b3d 8026 9abe
000002e0: db71 94bf e120 7abe 53f3 3c3f e5bc 03bf
000002f0: 4797 b2bf 3b9b 7bbf f1a2 f23e c7e1 463f
00000300: 3ee2 61bf ef5f 853d 7664 2a3f 58de b53d
00000310: 3905 64bf 0229 de3d af61 663f 7f84 38be
00000320: d20d 8cbf a473 fdbe 57bf 9cbb e8a4 703f
00000330: b517 acbf b0ec 62bf 0cf2 3e3e 06cf 7e3f
00000340: 7a3d 0cbf c54f 543e 0dd9 aa3e fcc0 793d
00000350: b2ad b9bf ad14 06be c15a c3bd a3bb 513e
00000360: aeaf 7fbf 843d 803e 4730 623f edf3 74bc
00000370: d395 53bf 4c8b 1e3e 4152 bebf 79fc 5ebf
00000380: 68cf 9cbf 027d 14be 7ecd 4bbe 2406 b2be
00000390: eed5 71bf 1782 e03e e327 c13e b06f f83d
000003a0: 432e 92bf 5ae7 4c3e 89ac 423f 7523 a73d
000003b0: a79b d0be 8c40 ae3e 865a d73f a894 143f
000003c0: 054f 9bbf abcd 26bf 24ba d63e 4882 72bd
000003d0: e563 5bbe 23ad c63d 286e fa3d 4ac1 0e3d
000003e0: ecf5 d2bf d761 79bf fb25 33bf 46a4 4e3f
000003f0: 231b 60bf eb67 323e a1d9 6f3f 1b1e 27bc
0.33227098 -0.06598747 -0.4813977 -0.005538523 -0.7375319 -0.28238562 0.27370042 -0.12809798
-0.86252433 0.024262993 0.07187908 0.2902047 -1.3658632 0.42039016 1.1509383 0.2941938
-0.72145 0.17298763 1.0862576 -0.06776326 -0.8440171 -0.38056278 0.5536352 0.48508447
-1.5977926 -0.3118553 0.01891612 0.5359804 -0.35541308 -0.31679317 -0.671491 -0.52478635
-1.0600563 0.009473022 0.0722985 -0.09359486 -1.546978 -0.7579129 0.7840571 0.83380914
-1.5068239 0.14093438 -0.09204525 0.029845422 -1.1343112 -0.7490482 0.17977908 0.72490954
-1.3100433 -0.73575723 -0.39427796 0.75260985 -0.9371367 -0.011312992 0.056185022 -0.0416779
-0.14777224 -0.05005212 0.38385138 -0.1289058 -0.2521274 -0.22876848 -0.80236614 -0.45727387
-0.572864 -0.29049417 0.5550669 -0.088207304 -1.4266152 -0.023565909 0.26284882 0.6919663
-1.8591136 -1.2559495 -0.06938454 1.0702622 -0.8348661 -0.30230644 0.19991289 -0.1344287
-0.5404822 0.16923316 -0.096651144 0.15186372 -1.6460714 -0.29383883 0.13080826 -0.14316285
0.5003831 -0.48819038 0.0014431903 -0.3313836 -0.74249226 0.16471529 0.43126643 -0.065134905
-0.5558448 -0.40013367 0.056455404 0.5031848 -0.8555712 0.3302127 -0.09353485 0.1580883
-1.0572534 0.10732904 0.13161464 0.0022460183 -1.5770383 -0.41677782 -0.14852114 0.38446036
-1.7315236 -0.6692104 -0.12103701 0.46272695 -1.4396343 0.4876378 -0.3034683 0.005195204
-0.6603611 -0.49166602 0.046067122 0.5164311 -1.2190069 0.39423853 -0.25698546 0.0038542417
0.7620839 0.21330638 -0.6983137 0.3883101 0.18106686 0.12809737 -0.37571606 0.06267249
-0.91472745 -0.11856168 0.68024683 -0.15222177 -1.0132686 -0.0049886657 0.43327773 -0.09459382
-1.3832756 0.14515592 0.23023292 0.0852076 -1.6148834 -0.25694418 0.81790125 -0.16616628
0.026316145 0.14024384 0.2646009 0.12324878 -1.1270599 -0.3612338 -0.2993616 -0.4435112
-1.3733757 -0.9458644 -0.23978719 1.0246885 -1.7462782 -0.88742846 0.16200355 -0.057293124
-1.1312891 -0.36191818 0.5738353 0.3834864 -0.8441907 0.43594754 -0.044637956 0.17183238
-1.2348688 0.29993996 0.6377633 0.28182727 -0.7473665 -0.36637923 0.034017555 -0.30107498
-1.1597246 -0.24426605 0.73808783 -0.51460105 -1.3952416 -0.9828374 0.4738994 0.7768826
-0.88235843 0.065124385 0.6655954 0.08880299 -0.8907047 0.10847665 0.89992803 -0.18019293
-1.0941718 -0.4950229 -0.0047835517 0.94001627 -1.3444735 -0.88642406 0.18647021 0.9953464
-0.54781306 0.20733555 0.33368722 0.06097506 -1.4506133 -0.13093825 -0.09538794 0.20481734
-0.9987744 0.25046933 0.88354915 -0.014950735 -0.8265049 0.15482825 -1.4868852 -0.8710399
-1.2250795 -0.14500812 -0.19902608 -0.3477031 -0.94467056 0.4384925 0.37725744 0.12130678
-1.1420368 0.20010129 0.7604452 0.0816106 -0.40743753 0.3403362 1.68245 0.5803933
-1.213349 -0.65157574 0.4193889 -0.059206277 -0.21424825 0.09700992 0.12228042 0.034852304
-1.6481299 -0.97414917 -0.6997983 0.8071941 -0.8754141 0.17422454 0.9369145 -0.010200049

fc1.bias f4 [128]
00000000: eeb8 edbe 759a a63f 3c0d c43f 29fb a83d
00000010: 824a b0be 7cd5 953f 7836 6f3f 7723 edbe
00000020: a893 3c3f 4413 ab3e 6201 9bbe dad1 fd3e
00000030: 656d 673f 96b8 ab3f 7b2d e7be 94bd c9be
00000040: d8f5 b13f 1f33 943f 98ce ad3f be49 ac3f
00000050: 9c19 d53c f16e 253f bb99 d9be 2f5b 06bf
00000060: ef70 3c3f 4c0d 813d d950 58be ca29 893f
00000070: 6558 8b3f 4727 473f 9b51 9a3f d708 733f
00000080: d389 1bbe 9a67 e6be 1a76 973f 751e 64bd
00000090: b8da cebe 5fd8 943e b610 77be 7d61 243e
000000a0: 1c29 123f cb72 403f 1b69 b23f 872c 9b3f
000000b0: 32cf e0bd 8c3e 583d 90bb 0a3e 3d21 973f
000000c0: 867c e7be cb3d 06bf ffb8 d03f 14e5 be3f
000000d0: d5e8 55be f2cb bf3f a4d3 0bbf 567f ca3e
000000e0: 024c 6e3f bb4b e7be a74a ebbe 9c13 fa3c
000000f0: e36f 153f 1c32 9bbe e150 303f 70ef 8fbe
00000100: 4c77 b63f 358f 53bd 0e82 b0be 8ab8 5d3f
00000110: e02c eebe 0430 853f 7540 e1bd 9e83 aa3e
00000120: 2024 94be f88a 60be 1b40 073f f768 e5be
00000130: fe5e 6a3e d924 ccbe 03c6 9a3e 7e7c c23f
00000140: 45ee 9cbe c5ed be3f c966 9b3f 488d 0c3f
00000150: 5a72 a93f d988 debe 2d4e 1f3f 4997 8b3f
00000160: ef4f 9bbe 9ac8 563f dd3b 723f 92e6 883f
00000170: ba7d 903f 83db 12bd d4f2 083f 79ad e0be
00000180: deba 0d40 8023 5b3f 63d5 8bbe f8f6 763f
00000190: df5f afbe f3d8 263f 4e55 353f 0576 d83e
000001a0: bbf5 b53f 6f8c 04bf 610b 0c3f 9869 c13f
000001b0: b9c4 f8be ccc0 833e 9ca2 05bf 2d00 c6be
000001c0: 07f6 1f3f d927 a93f 7904 383e 2f28 9e3f
000001d0: 7a63 833f 62a2 aa3c 6bea 793f a01b 993f
000001e0: b169 ad3f 49c0 07bf c0f7 ec3d ace3 65be
000001f0: 27c0 a43e 3617 09bf c8f7 153f ebda 693f
-0.46430153 1.3015887 1.5316539 0.0825103 -0.34431845 1.1705775 0.9344249 -0.4631612
0.73662806 0.33413136 -0.30274493 0.49574167 0.904013 1.3415706 -0.45151886 -0.3940245
1.390315 1.1578101 1.3578672 1.3460004 0.026013188 0.6462241 -0.425001 -0.52482885
0.73609823 0.06301364 -0.21124591 1.0715878 1.0886351 0.7779431 1.2056154 0.94935364
-0.15189295 -0.45000917 1.1832917 -0.05569311 -0.40401244 0.29071328 -0.24127468 0.16052814
0.5709398 0.7517516 1.3938326 1.2122964 -0.10977019 0.052794024 0.13548112 1.1807019
-0.4521219 -0.5243804 1.6306456 1.4913659 -0.208896 1.4984114 -0.5461981 0.39550275
0.9308473 -0.45174965 -0.45955393 0.030526929 0.5837385 -0.30311668 0.6887341 -0.28112364
1.4255157 -0.051650245 -0.34474224 0.8660971 -0.46518612 1.0405278 -0.10998622 0.3330354
-0.2893381 -0.21928012 0.5283219 -0.44806644 0.22887799 -0.39871863 0.30229196 1.5194242
-0.30650535 1.4916312 1.2140743 0.5490308 1.3238022 -0.4346378 0.6222866 1.0905544
-0.30334422 0.83899844 0.94622594 1.0695364 1.1288369 -0.035853874 0.53495526 -0.4388235
2.2145305 0.85601044 -0.2731124 0.96470594 -0.3425283 0.6517479 0.7083329 0.42277542
1.4215616 -0.51776785 0.5470486 1.511035 -0.48587587 0.2573303 -0.5220125 -0.3867201
0.6248478 1.3215286 0.17970456 1.2356013 1.0264733 0.020829383 0.9762332 1.1961555
1.354788 -0.5302778 0.11570692 -0.22450131 0.3217785 -0.5355104 0.5858121 0.9134967

fc2.weight f4 [128, 128]
00000000: c159 25bd 5197 1f3e 2938 663e 6af4 42bf
00000010: d95a bbbe 1693 1a3e 2961 163d 0c09 37be
00000020: 7a6c 5cbd 0b8d 17bf 27ce cdbe 17ef 82be
00000030: 7d73 3fbd 859a 3f3e 0bc9 a33d f6eb 663e
00000040: 4953 2c3e e760 a8bd add5 acbd a22c 553e
00000050: 0554 4ebc df61 b63d 9633 2dbe 5567 163e
00000060: 16f8 c9bd 94ad 1ebe 56a2 bfbe 5270 243e
00000070: 1d21 fc3d ac50 2fbe 6d41 643e dea1 74bd
00000080: f76d c3be f423 cdbd aa4a 8f3b 6685 a8be
00000090: 66e4 f4be 7692 cbbe f13b 38bd 7e61 9b3e
000000a0: 9b35 90be b80b 813e 52fc 273e 7046 67bb
000000b0: afeb 953d dbde dd3e 7202 18bd 2d4b 1abe
000000c0: e55a a3be c416 cebe 6469 f7bb 12f4 223d
000000d0: f7d4 023d edf7 843e 2ff2 f9be c93a bebd
000000e0: 91d0 093e 7904 babe 45a1 a1be 4d0a 8cbe
000000f0: 9be0 403e a065 493b a09f fcbd b663 04bf
00000100: da39 73bd 0e7e 68be 3e08 d8be 078c f63c
00000110: 0ef4 8bbd e877 953e faaf 68bd 3035 3d3d
00000120: 10c4 b7be cdbe 8e3d 231a 72be 8902 84be
00000130: 8007 52be 284c aabe 36c1 a4bf 6415 023e
00000140: 026b 453e c13f 143e 977f 60be 6042 4dbe
00000150: 7fea 29bd 47e4 2bbe a3ca fbbe 33ac 113e
00000160: 17e5 1cbf 1ab3 5cbe 5442 2dbd d221 cebd
00000170: 330f 843e ce02 c9be 89d2 ddbe 5dde 7abe
00000180: c6f7 a73e d115 203c 7bb2 dfbc beec 2b3b
00000190: 17db 3cbd 2b53 ec3d 5e2a b13e 0a0d 133d
000001a0: d1e6 b43d b068 843b d626 44be 1a31 72bd
000001b0: dd29 593e 84fc 8dbe b6bf bcbe 56d3 d8be
000001c0: c15b 5dbe e7da 62be 5381 dcbc 101b b4bd
000001d0: f864 6a3e 8d49 96bd fa84 573e 62db 013e
000001e0: 3bc7 f7bc 5472 0bbf 9d6d 383e 4942 993d
000001f0: 3616 a1be 8138 963d d3e3 71be 512a ae3d
00000200: 99fc 60bd f759 eebd ee2e 4dbd e333 a43d
00000210: 42e2 d3bd c85d 0ebc f818 87bc ad4b a93d
00000220: c2ff 1d3c 7a8c 433d 60ed cfba 1a38 523d
00000230: 14d4 89bc 7cfd fd3c 8c1f 75bd a478 b13c
00000240: 35f3 b6bd 986a 76bc 96d1 283d b342 86bd
00000250: 5137 f6bd 4cca 99bd 7fa3 d6bd 1fa3 3d3d
00000260: e8f6 ea3c 3b96 e5bc 1e27 353c 1ccd 8e3c
00000270: 0a8c e5bc 9879 5fbd 988e 6dbc 3458 89bd
00000280: 3eaa c0bd 49c9 f93b 80bd 1abb 5f0a 133d
00000290: 2ea0 fbbc e8b3 1bbd b4d6 a83c 955e 9ebc
000002a0: d9b8 01bd e669 643d c2a9 92bd a6df 43bd
000002b0: 6fad 473d de43 6abd 7ad3 803d af01 ab3d
000002c0: ffc0 a3bd 1eca b0bd d916 4abd 50f1 4abc
000002d0: 1e2e 74bd 2e46 5f3d aa8b cfbc a071 1b3d
000002e0: b7aa 063c d5e3 84bd a22e 2cbd 924e 663d
000002f0: a606 1d3d 349c b6bc 4034 de3b b94a 33bd
00000300: bbea 06bc 61d8 72bd 7480 a33c baf9 333d
00000310: e045 b13b d3bf 26bd f2ce 903d de97 123d
00000320: e3b7 4fbd e8a8 54bc 7f47 acbd a0de 393d
00000330: a5b3 fc3c 7b45 8b3c 14fe ff3c c2bf 96bd
00000340: 13ae 353d d10d 8cbd aa23 9dbd 68f9 c23c
00000350: 8861 183c 183d dd3c c700 49bd f2f6 b1bd
00000360: 8879 18bd 6bf0 5d3d 80c5 673a 120f ccbb
00000370: 204f a4bd 71a5 93bd 2ed7 2a3d a9b8 97bc
00000380: 5aae debd 9c85 babd a29d 83bd 221a e83b
00000390: 5a29 613d 68e0 1fbc 6e63 a33d 9829 4a3d
000003a0: ee75 8cbd 5f99 9c3d d88c 66bc 997b 80bb
000003b0: b133 4cbd eb5c bcbd 7e0e 9f3d b224 6c3c
000003c0: b54a cf3c 3f4a 99bd add1 103d 2c9d d2bd
000003d0: 8ba1 ae3d 0a9e e33c a3dc a23d c74e 2a3c
000003e0: c909 393c 422e 643d 0de9 c1bd 8c57 4bbd
000003f0: 367e 33bd a0ac e73c d018 853b ded0 42bc
-0.0403688 0.15585066 0.22482361 -0.76154196 -0.3659275 0.15095171 0.036713753 -0.17874545
-0.05381439 -0.5919959 -0.40196344 -0.25573036 -0.046740998 0.18711288 0.0799733 0.2255095
0.16828646 -0.08221608 -0.08439193 0.20817807 -0.012593274 0.08905386 -0.1691421 0.14687856
-0.09861772 -0.15495902 -0.3742854 0.16058472 0.12311003 -0.17120618 0.22290583 -0.05972468
-0.38169834 -0.10016623 0.0043729143 -0.32914275 -0.47830504 -0.39760178 -0.04497904 0.30347818
-0.28165898 0.25204253 0.16404846 -0.0035289787 0.07320344 0.43334088 -0.037111707 -0.1506774
-0.31905285 -0.40251744 -0.0075504053 0.039783545 0.03194138 0.25970402 -0.48817584 -0.09288556
0.13458468 -0.36331537 -0.3156835 -0.2735161 0.1883568 0.003073074 -0.123351336 -0.51714647
-0.059381343 -0.22704336 -0.42193788 0.030096067 -0.06833659 0.29193044 -0.05680845 0.0461933
-0.3589177 0.06969986 -0.23642783 -0.25783184 -0.20510674 -0.33261228 -1.2871463 0.12703472
0.19279101 0.14477445 -0.21923672 -0.20044851 -0.0414834 -0.167863 -0.49178037 0.14225845
-0.61287063 -0.21552697 -0.042299584 -0.100650445 0.25792846 -0.39259952 -0.43324688 -0.24498887
0.32806224 0.009770826 -0.027306786 0.0026233639 -0.046107378 0.115393005 0.34602636 0.035901107
0.08833087 0.0040408 -0.1915544 -0.05912886 0.21207376 -0.27731717 -0.36865014 -0.42348737
-0.21617033 -0.22153817 -0.026917135 -0.08794224 0.22890079 -0.073382474 0.2104682 0.12681344
-0.030246368 -0.54471326 0.18010564 0.07483346 -0.31462258 0.07334996 -0.23622064 0.08504165
-0.054928396 -0.11638253 -0.050093584 0.08017709 -0.1034589 -0.008689351 -0.016491398 0.08266387
0.009643497 0.04774139 -0.001586359 0.051323034 -0.01682476 0.03100466 -0.05984454 0.021663971
-0.08933107 -0.015040062 0.0412155 -0.065556906 -0.120222695 -0.07509288 -0.10480403 0.046298143
0.028682187 -0.028025737 0.01105669 0.017431788 -0.028020877 -0.05455932 -0.014499329 -0.067062765
-0.09407471 0.007622872 -0.0023611486 0.035898563 -0.030716028 -0.03801337 0.02061019 -0.01933221
-0.031670425 0.055765055 -0.07161285 -0.04782071 0.048749384 -0.05719363 0.06290336 0.083499305
-0.079957955 -0.08632301 -0.049338195 -0.012386635 -0.059614293 0.054510288 -0.025335152 0.037950158
0.0082194125 -0.06488768 -0.04203666 0.056227274 0.03833642 -0.02229128 0.006781131 -0.043772433
-0.008234675 -0.059288386 0.019958712 0.04393933 0.005409941 -0.04071028 0.07070722 0.035789363
-0.050712477 -0.0129797235 -0.08412074 0.045378327 0.03084738 0.017000904 0.031249084 -0.07360794
0.044355463 -0.06838573 -0.07672818 0.023800567 0.009300597 0.02700667 -0.049073007 -0.08689679
-0.037225276 0.05418436 0.00088413805 -0.0062273825 -0.080229044 -0.0720929 0.041709118 -0.01852067
-0.10873099 -0.09107515 -0.064265504 0.0070831934 0.054971077 -0.009758092 0.07977949 0.049356073
-0.06858431 0.07646441 -0.014071666 -0.003920984 -0.049853984 -0.0919741 0.07766436 0.014413046
0.025304178 -0.074848644 0.035356212 -0.102838844 0.085269056 0.02778532 0.07952239 0.010394759
0.011293837 0.055708177 -0.09468279 -0.049644038 -0.043821536 0.028280556 0.004061796 -0.011890618

fc2.bias f4 [128]
00000000: 72da e53d ac78 153c 5840 293f a3f8 463f
00000010: f4d8 9abd 16c0 3f3f a592 513f 89b4 1e3f
00000020: 56b0 f3bd 68c6 ccbd 952b d13f b21b 693f
00000030: baee d1bd d466 4d3f 60c3 f6bc e00b 2a3f
00000040: 38d0 0840 04bb 443f 85ba 313f 2574 b63c
00000050: d07c 5bbd 52bd e3bd 1285 803c fb3b 3d3f
00000060: 0efe 033f 7675 e7bd 21f9 463e 3796 953f
00000070: 0caf 4d3f 2d33 a83e 18ca 053c d4c3 933c
00000080: 3a77 6c3f c0c8 8c3c b428 bf3b c1f8 debd
00000090: de59 0540 c2ca 9f3f 16e3 abbc 3423 b73f
000000a0: 9467 983f 63fd 00bc 08ae c3bb 81f1 953c
000000b0: c371 533f efac d33f d06a ce3b ffc0 16bd
000000c0: f73d a3be ab37 373c 3a8c cdbc 673e f0bc
000000d0: 7d8f 99bc 6eb9 543c 69d6 9ebd f708 063f
000000e0: 72d1 213f 321b 343f f5d2 af3f 1526 29bd
000000f0: d762 e6bc cc33 9bbd 5a80 113a 37ef 4e3f
00000100: e06a 54bd bc1a 293f b97b dfbd 79e9 aa3e
00000110: e9ad 3d3f 419b 76bc 8722 bfbd c7c8 213f
00000120: 73f3 0d3f 4dd4 963f 70db 81bd cdcc ad3f
00000130: 089b 643f 1967 0c3f 03a7 c6bd 7d82 493f
00000140: 83b2 9ebd 4b11 323f 7f49 023f 0cd5 ad3f
00000150: d17d 403d 3b72 bebc a4f0 e83c 1419 2c3f
00000160: 904a a43e 75a7 7cbd 2484 f2bd 89b0 0cbe
00000170: 5a55 a33f 4384 4a3f d28b c73b 7ef5 353f
00000180: b513 4a3f 5866 903d f90b 753e 6c80 573f
00000190: 10cf 9b3c bbb6 a23d 378b b6bd 7f52 99bd
000001a0: f35e 353f dce4 e8bd 581a 503f a8a3 b03c
000001b0: c1c5 17bd dfac 363f aa9e 553f 710b bcba
000001c0: 422d 643c c533 413f 5e5e a83e 1d55 3d3f
000001d0: d98b d9bd e035 043b 8105 2dbd f061 d4bd
000001e0: 4d93 403f 1196 3f3f 7b1e 603f 22fb 0f3d
000001f0: 71d2 463e 80d6 1a3f 4b83 1f3f 0f2e 6bbc
0.11223306 0.009123009 0.66113806 0.7772314 -0.07560912 0.74902475 0.81864387 0.61994225
-0.11898868 -0.099987805 1.6341425 0.91057885 -0.102506116 0.8023503 -0.030122459 0.6642437
2.1377087 0.76847863 0.6942523 0.022272179 -0.053585827 -0.11120094 0.015688453 0.7391965
0.5155953 -0.11301701 0.19430973 1.1686467 0.80345225 0.32851544 0.008165859 0.018037714
0.92369425 0.017185569 0.0058337096 -0.1088729 2.08361 1.2483752 -0.020982306 1.4307618
1.190661 -0.007872912 -0.005971674 0.018303635 0.8259546 1.653715 0.006299354 -0.03680515
-0.31883213 0.011182706 -0.02509128 -0.02932663 -0.018745178 0.012983663 -0.07755739 0.5235743
0.63210213 0.70353997 1.3736254 -0.041296083 -0.028123302 -0.07578239 0.0005550437 0.8083376
-0.051859736 0.6605642 -0.1091227 0.3338125 0.7409349 -0.015051664 -0.093327574 0.63196987
0.554496 1.1783539 -0.063406825 1.3578125 0.8929906 0.54844815 -0.09699824 0.78714734
-0.07748892 0.69557637 0.50893396 1.3580642 0.046994988 -0.023247829 0.028435059 0.67225766
0.32088137 -0.061683137 -0.1184161 -0.13739218 1.2760422 0.79108065 0.006089666 0.71077716
0.7893632 0.070507705 0.23930348 0.8418033 0.019019634 0.07945009 -0.08913272 -0.07486438
0.70848006 -0.113717765 0.812902 0.021562412 -0.037053827 0.7135753 0.8344523 -0.0014346672
0.013926806 0.7546962 0.32884496 0.73958 -0.10622377 0.0020173714 -0.042241577 -0.103702426
0.75224763 0.7483836 0.8754651 0.03515161 0.19416215 0.6048355 0.6230971 -0.014354243

output_layer.weight f4 [2, 128]
00000000: 4492 cb3d 164a 83bd 93a4 7b3f bd27 7d3f
00000010: a010 47bd a7fc 633f c367 673f 53cb 693f
00000020: ece1 a0bc 635f cf3e f0ce 81bf 2ca1 603f
00000030: cdaa 19bd bfc5 713f f56c 23bd 2af3 643f
00000040: 0a14 aebf 7900 623f c28c 6e3f 683c 33bd
00000050: f695 19bd 37af 443d ab01 b03d 7954 5a3f
00000060: 3f89 7c3f a98d c33b 6563 8e3e 1bb9 acbf
00000070: c699 703f 3a46 a33e 1cb7 133d 97d6 0738
00000080: 72c9 5e3f 6b18 9a3d 6391 a0bd d16b 29bd
00000090: 8792 afbf 646a 8ebf 204d 093c f190 8ebf
000000a0: 54f8 a2bf cf8e 9ebd 0ad8 cbbc 5d28 3fbd
000000b0: d5ab 6a3f 80e8 a0bf 0cda 7fbd f9b5 1b3d
000000c0: 4f0f 243e 15d4 de3c eaa2 d93c 840b 06bd
000000d0: 6854 973c 9184 6fbd a0ce 49bb 7264 6f3f
000000e0: 7d45 7f3f 1de1 5d3f e7b9 85bf bfdd 84bd
000000f0: 2a60 e8bc d296 3cbd 2730 93bc fa0d 5d3f
00000100: 5419 903c fcc6 773f 8a95 d1bb b714 c33e
00000110: f72a 773f f9ec d33c d64a 003d 5092 813f
00000120: 7b7d 793f 7657 a2bf 78b2 ed3c 6fb6 93bf
00000130: 912c 5c3f a3c3 723f 7a20 703c 2469 623f
00000140: e4c5 ea3c 164f 7d3f 48b7 f7be f2ec 82bf
00000150: 997d da3c 68da 76bc c70d 4ebd db63 7a3f
00000160: acb9 313e b718 9e3d 98da 31bc 425c ddbb
00000170: 2ec2 84bf c7cf 5c3f 7104 94ba a2a7 713f
00000180: 54f8 733f 1c3b 693e 3f2e ae3f d34f 643f
00000190: 34c6 d83c 8db1 a6bd 21ad a03d b8ba 163d
000001a0: 2012 7b3f 480f 11bd d5f9 6d3f fb1f 203d
000001b0: b9fc 413d 2156 803f 1cc1 6d3f 8924 763c
000001c0: 3747 8fbd b219 7a3f df28 04bf 8064 623f
000001d0: 93cf 30bd 7a09 623d 373d 563b f546 b9bc
000001e0: d659 793f 1918 6e3f 95bd 683f 2836 aebc
000001f0: b20b 823e 813b 813f 9fae 793f 44ae 93bc
00000200: bcba 46be 33ff 253d 8a7e 693f 5cbf 733f
00000210: 897a 06bc 03dd 723f cf3c 6d3f dcaa 4c3f
00000220: 2f2c 9d3c f5bb 213e 9245 b4bf 0dec 6b3f
00000230: c9f6 d7bc 8afc 673f 84ad 9dbc 9617 5a3f
00000240: dba7 d8bf e0c9 6b3f d100 6c3f 72b5 7e3d
00000250: aa60 613a e29d 8c3b d2e7 223d c2f7 693f
00000260: bd21 4a3f 80f8 85bd ad1c f7bb 079c 42bf
00000270: 8993 6e3f 8827 a2be 8e58 a2bd df56 01bd
00000280: e4d8 703f cbde 5fbd 4e2a a7bc 1c12 37bc
00000290: 75e5 d7bf 0d34 55bf 7cda 2b3d 7b05 92bf
000002a0: 088c 3bbf 506c 2bbc 72fd eabc c9f1 38bd
000002b0: 799f 6c3f ac7e b6bf eb9f 763d fbe9 0dbd
000002c0: 3d23 01bf 04b0 053d 65d1 53bd ec33 c33c
000002d0: ebb2 a53c aa28 86bc 02de 573c bc3f 403f
000002e0: b3cf 623f a549 733f 1c0e 86bf e26e 50bc
000002f0: f05b a1bc cb32 1fbd e387 6abd 8a9f 6f3f
00000300: 16fd 74bd d236 743f 9b86 85bd 94d4 543f
00000310: 555f 733f f293 b83c e255 09bd 192f 753f
00000320: a622 493f a7fd 3abf 6614 dabb 1e6c 91bf
00000330: 901d 763f 872a 4b3f ec39 18bc bf0c 773f
00000340: 9728 2b3c 718d 743f fbbd a2bd a7e8 83bf
00000350: 39df 0cbd 227b 263c 22b1 f4bc 7df7 653f
00000360: a076 fabd c140 abbc dc5b 9bbc 9183 3b3d
00000370: 268f 87bf 6b71 763f 48ea 43bc c45c 723f
00000380: c69c 723f adf7 563d f618 c9be d7e3 613f
00000390: 97f7 48bc d128 15bd fdfa 19bd 1099 fe3c
000003a0: 6053 593f 3d00 23bb dec2 6a3f ec11 29bd
000003b0: 6afb d93b e773 603f b7d3 6b3f 6a7a 80bd
000003c0: a5ba 373d 7ce4 733f aa55 14be 400f 6f3f
000003d0: d210 143b b613 72bd 70fb 19bd 1a02 4dbd
000003e0: 8a5c 6c3f b6a0 683f b426 743f 6466 fbbc
000003f0: 38b0 2b3f 9991 733f 6411 583f dc4f 30bd
0.09940007 -0.06410615 0.98297995 0.9888876 -0.04859984 0.8905739 0.903927 0.91325873
-0.019638978 0.40502462 -1.0141277 0.8774593 -0.037516404 0.9444236 -0.03989883 0.8943354
-1.3599865 0.8828197 0.9318353 -0.04375878 -0.03749653 0.04801866 0.08594068 0.85285145
0.9864692 0.005967815 0.27810207 -1.349399 0.9398464 0.31889516 0.0360633 3.238636e-05
0.8702613 0.075241886 -0.0784023 -0.041362587 -1.3716592 -1.1126218 0.008380204 -1.1137983
-1.2732034 -0.07742082 -0.024883289 -0.046669353 0.91668445 -1.2570953 -0.062463805 0.03801534
0.16021465 0.027200738 0.026566941 -0.032725826 0.018472865 -0.058476035 -0.0030793324 0.9351264
0.99715406 0.8667162 -1.0447358 -0.06487607 -0.028366167 -0.04604227 -0.017967297 0.8634945
0.017590202 0.96788 -0.0063960003 0.38101742 0.96549934 0.025869833 0.03132137 1.0122776
0.97457093 -1.2682941 0.029015765 -1.1540049 0.860055 0.9482977 0.0146561805 0.8844168
0.028658815 0.989488 -0.4838202 -1.022856 0.026671218 -0.015066721 -0.050306108 0.9780862
0.17355984 0.07719558 -0.0108553395 -0.0067553828 -1.0371759 0.86254543 -0.0011292828 0.9439641
0.95300794 0.22776455 1.3607863 0.891843 0.026461698 -0.08139334 0.07845522 0.036799163
0.9807453 -0.035414964 0.9295934 0.039093 0.047360156 1.0026284 0.92872787 0.015023359
-0.06996005 0.9769546 -0.51624864 0.884346 -0.04316671 0.05518482 0.0032690295 -0.022616843
0.97402704 0.9300552 0.9091428 -0.021266058 0.25399548 1.0096284 0.97532076 -0.018027432
-0.19407171 0.04052658 0.9120871 0.95213866 -0.008207926 0.9486849 0.9267091 0.7994821
0.019186107 0.15794356 -1.4083731 0.9215706 -0.026362794 0.9061972 -0.019247778 0.8519224
-1.6926225 0.9210491 0.92188746 0.06218476 0.0008597473 0.004291282 0.039771862 0.91393673
0.7895773 -0.06541538 -0.00754126 -0.7601933 0.9319387 -0.31670785 -0.07927047 -0.031576987
0.9408095 -0.05465583 -0.020405915 -0.011173751 -1.68669 -0.8328255 0.04195641 -1.1407923
-0.73260546 -0.010462835 -0.028685305 -0.04515246 0.92430836 -1.4257407 0.060211103 -0.03464697
-0.50444394 0.032638565 -0.051713366 0.02382847 0.020226916 -0.016376812 0.013175489 0.7509725
0.88598174 0.9503425 -1.0473056 -0.012721749 -0.01969716 -0.0388668 -0.057258498 0.9360281
-0.059811674 0.9539615 -0.065198146 0.8313687 0.9506734 0.022531483 -0.03352917 0.9577499
0.78568494 -0.7304329 -0.0066552637 -1.136112 0.9613886 0.79361767 -0.009291153 0.96503824
0.010446689 0.9552832 -0.07946392 -1.0305375 -0.03439257 0.010161193 -0.02986962 0.8983076
-0.12229657 -0.0209049 -0.0189647 0.04577977 -1.059056 0.9626681 -0.0119577125 0.946728
0.9477047 0.052482296 -0.39276856 0.8823828 -0.012266061 -0.03641588 -0.037592877 0.031078845
0.84892845 -0.0024871968 0.91703594 -0.041276857 0.0066522853 0.8767685 0.92119926 -0.06273349
0.044855732 0.95270514 -0.14485803 0.93382645 0.0022593034 -0.05910083 -0.037593305 -0.050050832
0.92328703 0.90870225 0.95371556 -0.030688472 0.67065763 0.9514404 0.84401536 -0.04304491

output_layer.bias f4 [2]
00000000: fd7d 153f 4a77 9c3e
0.5839537 0.3055976
