models/dqn_pendulum.pth (torch, 71871 bytes, 6 tensors)

fc1.weight f4 [128, 4]
000000 b8 d4 47 3f 81 4f 17 bf 49 98 51 c0 ee 4f 83 bf
       0.7805896 -0.5910569 -3.2749197 -1.0258768
000010 a0 10 c1 3f c9 6b 05 3f bf a3 61 bf 5f 11 88 be
       1.5083199 0.5211759 -0.8814048 -0.26575753
000020 a6 15 2c be 2c b7 2c 3e e3 b4 26 c0 c7 52 50 3e
       -0.16805133 0.1686675 -2.6047904 0.20344077
000030 58 ba d2 3c f2 08 22 be e8 f6 a3 bf cd 2b 99 bd
       0.025723621 -0.15823725 -1.2809725 -0.074790575
000040 6c 28 20 3e d5 87 88 be 9a f2 a6 bf 8d 99 cd bd
       0.1564042 -0.26666132 -1.3042786 -0.10039053
000050 af f9 62 be 37 a1 9d 3e 2e af 0c bf cd 11 c4 3e
       -0.22165559 0.3078706 -0.54954803 0.3829483
000060 80 45 37 3e 25 cc 9a be c9 14 c1 be f7 81 74 be
       0.17897606 -0.30233875 -0.3771117 -0.23877703
000070 37 7d 40 3d f6 fd 70 bd bd af e6 be ec bc 36 3d
       0.046994414 -0.058835946 -0.45055953 0.044613764
000080 a3 8e 85 3e 44 f6 00 3f 5e 28 43 40 94 ef 76 3f
       0.26085386 0.5037577 3.0493388 0.9645932
000090 82 9c c5 3c 8a 7c 3b be 2d 44 8f bd 9d 21 0e be
       0.02412248 -0.18309227 -0.069954254 -0.1388001
0000a0 02 e6 f7 3d 0c 4d ff bc 93 37 4c bf 16 65 c3 bb
       0.121044174 -0.031164669 -0.797723 -0.005962978
0000b0 f2 c9 57 3e 56 a3 9d bc 0c 22 87 bf e4 82 d0 3c
       0.2107313 -0.019242924 -1.0557265 0.025453039
0000c0 69 ee 9c 3d 14 38 90 bd cc 83 81 bf ca 06 8a bc
       0.07662661 -0.07041946 -1.0118346 -0.01684894
0000d0 1f 9b 7c 3d 2a bb 1f 3d 3e 2f 0b 3f a6 3a 0b 3d
       0.061671373 0.038996853 0.5436896 0.03399148
0000e0 03 34 9e 3e 4a 7f ef 3d 0a 74 c9 3e fb b9 d3 3d
       0.30899057 0.116942 0.39346343 0.10338207
0000f0 92 87 7e be 59 85 f2 3e 33 c7 9b 3f ac 28 27 3e
       -0.24856403 0.4736736 1.2170166 0.16324109
000100 82 49 21 bd 84 a9 db bd 3a 0a 37 be 63 65 12 be
       -0.039376743 -0.10725692 -0.17874995 -0.14296488
000110 09 d2 33 3e a3 48 2b be 1b e2 84 bf b7 a3 4c bd
       0.17560591 -0.16726927 -1.0381502 -0.04996082
000120 39 af ce 3f 4c 8b 76 3f 06 06 43 bf 64 b7 b4 be
       1.6147224 0.963063 -0.76181066 -0.35296166
000130 11 32 00 be 8e a5 79 3e 0e 54 2c bf 48 4a 62 3e
       -0.12519099 0.2437956 -0.6731576 0.22098649
000140 a8 71 84 3f de 9b 1c be 1d ba 81 bf 6e ce b1 bd
       1.0347185 -0.15293834 -1.0134922 -0.086819515
000150 dc 48 ad 3e d9 7d 29 bf 28 a6 02 c0 e8 a1 33 bf
       0.3384465 -0.66207653 -2.0413914 -0.70168924
000160 3c ed 07 3e 90 51 25 be a0 b8 2d c0 94 b2 0a 3d
       0.13274091 -0.16144395 -2.7143936 0.03386171
000170 1a 1e 58 3e 57 85 e6 bd d7 1d 40 bf df 2f ab 3d
       0.21105233 -0.11255901 -0.7504553 0.0835874
000180 f8 bf 5a 3e ba 7b 00 be 3b 08 d1 bf 7f 19 0f bd
       0.21362293 -0.12547198 -1.6330637 -0.034936424
000190 d7 ed af 3d ef a3 6f bd d1 3c d7 bf 40 40 9f bd
       0.08590286 -0.05850595 -1.6815435 -0.077759266
0001a0 f4 0d 8a 3e 60 bb 7c be d5 fc 99 bf ae 0e 1a be
       0.2696377 -0.24680853 -1.2030283 -0.15044662
0001b0 6d 8b 5f bd 45 6c 4f 3d a9 38 52 bf c5 75 09 3e
       -0.054576326 0.050640363 -0.82117707 0.13423832
0001c0 70 e4 e8 3d 3e df 51 bd 84 d1 90 bf 84 61 0a 3d
       0.11371696 -0.05123829 -1.1313939 0.033784404
0001d0 6d b8 df 3f ed c9 d7 3f c5 d7 45 40 40 cf c8 3f
       1.7478157 1.6858498 3.0912945 1.5688248
0001e0 80 7f 0d be 8a 85 ff 3d 5d e1 82 3e b6 06 e8 3d
       -0.13818169 0.124766424 0.25562564 0.11329405
0001f0 0e 5e 09 40 55 96 98 3f 27 02 38 40 32 ae 94 3f
       2.1463656 1.1920878 2.8751314 1.161566
000200 37 bc ce 3c 20 e5 0c 3d c9 71 6e 3d c0 ae 03 3b
       0.025236232 0.034398198 0.058213983 0.0020093173
000210 d5 b0 93 3f 9d 45 5c 3f d6 f9 16 bf 22 91 b8 bd
       1.153834 0.8604372 -0.5897497 -0.09012057
000220 07 cd 48 3d b9 ce 5f bd e6 d5 88 3d f6 e2 df 3c
       0.049023654 -0.054640505 0.06681423 0.027329903
000230 1f df c8 3e 42 b7 f2 bd fd 84 58 bf a1 b2 56 3d
       0.39232728 -0.1185136 -0.84577924 0.052416448
000240 d6 19 71 3d de 24 cd bd 3d 19 e5 bf bf 17 7f bc
       0.05886253 -0.100167975 -1.7898327 -0.015569626
000250 97 66 7f 3c 13 7b 21 bd d9 a4 dd be 63 24 ae ba
       0.015588424 -0.039424013 -0.4328983 -0.001328599
000260 20 81 8a 3c 9c 71 c6 bc 17 53 d3 bf f2 6c f5 3c
       0.016907275 -0.024224095 -1.6509732 0.029959176
000270 67 d7 74 3e 2f d0 a4 be f2 9b a4 bf 1e 12 74 be
       0.23910294 -0.3219008 -1.2860091 -0.23835036
000280 d6 84 93 3d c6 f6 d6 bd d5 dc 88 bf 60 a3 e9 bd
       0.07203071 -0.10496287 -1.0692393 -0.114081144
000290 0f 79 d1 bd a2 0d 2b 3e 92 89 3f bf c7 66 66 3e
       -0.10228168 0.1670442 -0.7481929 0.22500144
0002a0 ba b4 c1 bd b8 86 85 3d 90 1d a2 bf aa e3 02 3e
       -0.09458299 0.06519836 -1.2665272 0.1278216
0002b0 9e f0 ee 3c b6 0b 29 bd 9a bd 98 bf 3e ba 59 bd
       0.02916747 -0.041270934 -1.1932862 -0.05315613
0002c0 48 ae 55 bd ec 56 36 bd 9e e3 09 bf bc 99 34 be
       -0.05216816 -0.04451649 -0.5386294 -0.1763677
0002d0 e3 f8 62 3f 3c 78 6d 3f 88 df 20 be d6 f3 3d 3e
       0.8866102 0.9276159 -0.1571027 0.18550047
0002e0 be f8 de 3c 5e cd 9b 3c 1a f6 e7 bf 44 e1 a2 3d
       0.027218219 0.019018825 -1.8121979 0.07953122
0002f0 89 a6 22 3f a7 e0 d4 3e 5f ba 08 c0 4e 74 cb be
       0.6353536 0.41577646 -2.1363752 -0.3973717
000300 c1 0a 81 3e ba 15 a8 be 0a c0 dc be b4 aa 52 bd
       0.25203517 -0.32829076 -0.43115264 -0.051432326
000310 58 ac bd 3d 09 d1 a3 bd c6 cc 77 bf 18 cd 53 bd
       0.092613876 -0.07998855 -0.96796834 -0.051709265
000320 d4 29 0c 3d d2 da aa bd f5 46 00 c0 66 49 ad bd
       0.034219578 -0.08342518 -2.0043309 -0.08461265
000330 51 65 8c 3f 2f d3 08 3e 22 ee 1d 40 14 00 83 3f
       1.0968419 0.1336181 2.4676595 1.0234399
000340 52 4d 16 3f 99 f3 91 be 11 ef 05 bf b5 df 49 be
       0.5871173 -0.28506163 -0.5231791 -0.19714244
000350 1a a5 52 bc 66 37 98 3d f4 c9 5d 3f 83 50 45 bd
       -0.012856746 0.074324414 0.8663628 -0.048172485
000360 e9 16 60 3f c3 ca 0f 3f 95 57 af 3f 0e 80 8f 3d
       0.8753496 0.56168765 1.3698603 0.07006846
000370 94 df cf 3d 81 eb 11 be 18 6c a8 be 0e bd ca bd
       0.10150066 -0.14249994 -0.3289497 -0.098993406
000380 bb 4d 3d 3c b0 92 b2 bd 5d 7a ac bf e9 ec ed bd
       0.011554177 -0.08719385 -1.3474842 -0.11617453
000390 8b d6 36 3e de a9 88 be ab 85 90 bf 33 cc 2a be
       0.17855279 -0.26692098 -1.1290792 -0.16679458
0003a0 3c e0 3c bc 5a 51 9d 3d 50 6b a3 bf de ce c5 3d
       -0.011528071 0.07681532 -1.2767124 0.096585974
0003b0 96 ee 28 3e be 97 73 3d fa 6f 0d 40 7c b4 24 3f
       0.16497263 0.059470885 2.2099595 0.643379
0003c0 43 f5 3b 3e 94 09 c8 3b 78 1b 9b bf 9f 7c 53 3e
       0.18355279 0.0061046574 -1.2117758 0.20653008
0003d0 92 eb 3b bd c6 b1 74 3d 44 c1 c8 be 3b 6d 99 3c
       -0.045878954 0.05973985 -0.3920995 0.018728843
0003e0 bc 32 86 be ca 13 c7 3e 8f 75 3c bb a4 b7 7e 3e
       -0.26210582 0.38882285 -0.0028756594 0.24874741
0003f0 6d b7 2a be 9b fd dc 3d de 25 66 3f a4 ac 10 3e
       -0.16671534 0.10790559 0.8990153 0.14128357

fc1.bias f4 [128]
000000 cc 1e 3e bf 7f 78 c7 3f c4 fb 23 bf 36 78 26 bf
       -0.7426574 1.5583647 -0.6405604 -0.6502718
000010 e9 ad 25 bf df c4 0b bf 26 c4 fd be 23 47 87 be
       -0.6471849 -0.54597276 -0.49563712 -0.2642146
000020 4b d1 37 40 4f 2e f7 be 38 21 da be 71 65 39 bf
       2.8721492 -0.48277518 -0.4260347 -0.7242041
000030 d5 70 c0 be 70 d1 bc be 80 18 9a bf 72 c2 91 bf
       -0.37586084 -0.36878538 -1.2038727 -1.1387465
000040 e5 79 f5 be 68 21 12 bf f9 dd bf 3f 1c 3c da be
       -0.4794456 -0.57082224 1.4989616 -0.42623985
000050 ea d1 0a 40 8e 63 b3 bf 27 07 53 bf b5 29 4f bf
       2.1690621 -1.4014757 -0.8243279 -0.80923015
000060 eb fc 35 bf 3b c8 44 bf be 58 43 bf e1 9e 06 bf
       -0.7108905 -0.7686803 -0.76307285 -0.5258618
000070 4d ab fe be ce 9d 31 3f 1c 16 dd be 1a 51 1f 3f
       -0.49740067 0.69381416 -0.4318093 0.62233126
000080 81 bd a9 be 62 c6 ef 3f 78 d5 bb be 7b 9a 8d bf
       -0.33152393 1.8732417 -0.366863 -1.1062769
000090 45 4f 05 bf 64 f9 41 be 38 dc eb be 5b f3 3e bf
       -0.5207408 -0.18942791 -0.4606645 -0.7459008
0000a0 bf a9 03 bf c5 e4 cb be fd 56 ce be d8 7b c4 be
       -0.51430887 -0.39822975 -0.40300742 -0.38375735
0000b0 b3 49 17 bf e4 25 2f 40 bf 41 ec be 8d 10 83 bb
       -0.5909683 2.7366877 -0.4614391 -0.0039997757
0000c0 3c 5b 5a bf f4 bf bf be 3b 4c 31 bf b3 e3 13 40
       -0.8529546 -0.37451136 -0.69256943 2.3107727
0000d0 cf 76 bd bf 03 d4 c7 be f7 0e 81 40 4a 9f a5 be
       -1.4801883 -0.3902894 4.033077 -0.3234809
0000e0 ba ce fc be c3 f5 16 bf f6 0f f0 be f1 50 0e 3f
       -0.4937647 -0.5896875 -0.46887177 0.55592257
0000f0 96 9f 5f bf bc 88 79 be 00 60 1c bf 92 71 12 bf
       -0.87352884 -0.24368566 -0.61083984 -0.57204545
000100 fa f3 9b be 4d bf 2d bf 88 0f 21 bf ad fc 1a 3d
       -0.30459577 -0.67870027 -0.62914324 0.037838627
000110 db 44 0e bf d4 19 2f bf d8 7e c2 be d5 db 90 3f
       -0.55573815 -0.68398786 -0.379874 1.1317087
000120 02 e5 83 be f5 97 1c bf 6c 56 49 bf 8d dd 12 bf
       -0.25760657 -0.6116937 -0.78647494 -0.5736931
000130 21 88 08 bf 9b 47 fc be 2e 15 bd be a4 48 be 3f
       -0.53332716 -0.4927338 -0.3693022 1.4865918
000140 81 2d 1f bf c3 94 83 be 00 54 c8 be eb 62 3b bf
       -0.6217881 -0.25699434 -0.39126587 -0.7319781
000150 75 ae fb be 3c 64 26 bf cf 8c 5d be b2 a2 29 40
       -0.49156538 -0.64996696 -0.21635745 2.6505551
000160 f2 fe 16 bf 2d 33 15 bf 30 5c d1 3f a8 4a 6e bf
       -0.58982766 -0.58281213 1.6356258 -0.93082666
000170 e0 6c ee be ce 51 08 bf fb cd 8b be b4 3d 8c 40
       -0.4656744 -0.53249824 -0.27305588 4.382532
000180 b3 47 25 40 6c 8c 26 bf f6 61 a9 be de 8d 6f be
       2.5825012 -0.65058017 -0.3308255 -0.23393962
000190 a2 44 0a bf e4 79 2a bf fa 71 80 bf 54 fe 2d bf
       -0.54010975 -0.6659224 -1.0034783 -0.679662
0001a0 da 6b b6 bf f0 e9 01 bf 65 fd 1c bf 2d b1 26 bf
       -1.4251664 -0.50747585 -0.6132415 -0.651141
0001b0 bf fc 0a bf e9 7f ab 3f 60 74 85 bf 71 7b 05 bf
       -0.5429191 1.339841 -1.042614 -0.5214148
0001c0 69 c7 1c be 58 7a 0e bf 10 ac 9a be 39 41 02 40
       -0.15310444 -0.5565543 -0.30209398 2.0352309
0001d0 2f 78 b9 3f 24 66 9a bf d1 dc 4e bf 7f 7c 7c bf
       1.4489802 -1.2062421 -0.8080569 -0.98627466
0001e0 dc fb 94 be 59 30 86 bf 63 10 67 bf 17 4e 86 be
       -0.29098403 -1.0483505 -0.9025938 -0.26231453
0001f0 ad 75 cc be 60 cf 49 bf 0d 19 c4 be 57 a1 64 be
       -0.3993353 -0.78832054 -0.38300362 -0.22327171

fc2.weight f4 [128, 128]
000000 83 a7 6f be f0 bb 56 40 89 7b ed 3e 2e 5a 1f 3f
       -0.23403744 3.3552208 0.46383312 0.6224698
000010 c1 00 55 3f b7 9f 8a 3e 18 43 4a 3f 12 45 3e 3f
       0.83204275 0.27074978 0.79008627 0.7432414
000020 74 cf 7c bf 72 5f e6 bc 5d 6f 51 3f 17 2b fd 3e
       -0.9875405 -0.028121684 0.8181055 0.49446937
000030 88 4e b1 3e 94 52 19 3f 10 2f d8 bd 38 0f 21 bc
       0.34630227 0.5989163 -0.105558515 -0.009830289
000040 e5 70 e4 bd 13 0b 29 3f be 0a 49 40 f3 7f 39 3f
       -0.111543454 0.6603252 3.1412807 0.7246086
000050 45 e0 2d 40 12 b9 29 3f 0a b7 2e 3f 69 ae 55 3f
       2.7168133 0.6629802 0.68248045 0.83469254
000060 83 8e 24 3f f0 7a a4 3e 50 6f 57 3f 17 df 11 3f
       0.64279956 0.32125044 0.84154224 0.56981033
000070 60 8d 4c 3f 86 d7 08 bf 4c e6 8e 3e 03 89 2b 40
       0.7990322 -0.5345386 0.27910078 2.6802375
000080 c3 c4 3e 40 3d 5c 04 40 e5 e2 c4 3f 3b a1 94 3d
       2.9807594 2.0681298 1.5381743 0.07257315
000090 f9 8d af 3e db 24 68 3f 7e cb ee 3e 7c 7a b1 3e
       0.34288004 0.90681237 0.46639627 0.3466376
0000a0 ee 07 b0 3e ba d9 e6 3e bc 8b ef 3e fa d5 d6 3e
       0.3438105 0.45087987 0.46786296 0.41960126
0000b0 85 df 05 3f 2e 32 e4 3f 93 3d c5 3e 87 84 40 bf
       0.5229419 1.7827814 0.3852354 -0.7520222
0000c0 b5 a1 5a 3f a8 97 14 3f 61 f8 50 3e d9 57 16 3f
       0.85402995 0.5804391 0.20407249 0.58727795
0000d0 b3 b9 8c 3f e3 f2 08 3f 5b d7 35 3f 03 6b 74 3f
       1.0994171 0.53495616 0.7103173 0.95475787
0000e0 74 59 00 3f 7c 69 7e 3f bd d5 a8 3e 91 73 12 40
       0.50136495 0.99379706 0.3297557 2.2883036
0000f0 e6 a3 6b 3f 2d bb 0e 3f 51 41 1e be 02 a1 dc be
       0.92046964 0.5575436 -0.15454604 -0.4309159
000100 75 9e 43 3f 3d c2 fd 3e 59 6a 34 3e 8d 2d 12 40
       0.7641366 0.49562255 0.17618693 2.2840302
000110 46 60 3e 3f b9 8f 9f 3f 08 14 fb 3e 08 50 0f 40
       0.7436565 1.2465736 0.4903872 2.2392597
000120 46 8a 29 3f 3c 06 2e 3f d5 cd e0 3e 6d 00 3a 3f
       0.66226614 0.6797826 0.43907037 0.726569
000130 b1 eb 5a bf bb c4 0d 3f b1 a2 01 3f 7e 20 69 bf
       -0.85515887 0.5537831 0.5063887 -0.91065204
000140 81 89 44 3f 5d 3d 42 3f db 5e 42 40 5c 64 1d 3d
       0.76772314 0.7587488 3.0370395 0.03842579
000150 6a c4 63 3f 5a e3 03 3f 1c cf 05 40 ac 9a 03 c0
       0.8897158 0.51518786 2.090766 -2.0563154
000160 7e 6e 2c 3f 45 cb 3a 3f d5 d3 a0 3f 89 8c 4d 3f
       0.673561 0.72966415 1.2564646 0.80292565
000170 9f e6 eb 3e cd 44 56 3f ef 92 4c 3f 17 ae 85 3f
       0.46074387 0.8369873 0.799117 1.0443753
000180 46 ab 15 3e 2b 30 55 40 11 11 ea 3e 82 ba 5e 3f
       0.14616117 3.331065 0.45716146 0.8700334
000190 11 a7 45 3f ec 6d 34 3f 85 c2 16 3f fd 44 2b 3f
       0.7720805 0.7048023 0.58890563 0.6690214
0001a0 cb 0b 43 3f de 3e 00 3e ec 48 6a 3f 1a ea fb 3e
       0.7618987 0.12523982 0.9151752 0.49202043
0001b0 80 94 32 3f 71 b8 bf 3f 3c f5 76 3f 04 d6 04 3f
       0.69757843 1.4978162 0.9646795 0.5188906
0001c0 12 0a 36 3f 05 37 0a 3f d0 56 9f 3f 86 60 e1 bf
       0.71109116 0.53990203 1.2448368 -1.7607582
0001d0 2e 5b ce 3f 14 82 45 3f 8b 3c 94 3f ca 6a 26 3f
       1.6121576 0.7715161 1.1580976 0.650067
0001e0 90 98 07 3f 1a 0e 55 3f 8f 3f 5c 3f 49 1c 0f 3f
       0.52967167 0.8322464 0.8603448 0.55902535
0001f0 a5 1f 80 3f 19 1e 5e 3f 81 63 b3 3f e4 20 bb 3e
       1.0009657 0.86764675 1.4014741 0.3654853
000200 cc 82 24 bc 06 e2 69 3d 66 ce 15 3d 28 58 8b 3c
       -0.01004095 0.05710032 0.03657379 0.01700981
000210 66 85 91 bd 2a 5d 35 3c b0 6c 21 3d a0 88 40 bd
       -0.07105522 0.011069575 0.039410293 -0.047005296
000220 10 e3 2c bd e6 4c 60 3d b9 6a 49 bd 1f 19 6b bc
       -0.04220873 0.054760836 -0.049174044 -0.014349251
000230 99 dc 36 bd a5 df 60 bc 4d 33 95 bd 33 2f b9 bc
       -0.044643972 -0.013725196 -0.072851755 -0.022605514
000240 80 d8 44 3c 8e 0a 21 bc b3 d4 fd bd 10 7f af bd
       0.012014508 -0.009829177 -0.12394085 -0.08569157
000250 15 28 73 bd 14 78 7e 3d f7 74 bf bd 63 95 88 bc
       -0.059364397 0.062126234 -0.09348481 -0.016672796
000260 21 ad 72 bd 9d 85 ce 3c 17 cd a8 bd 73 bb 9c bd
       -0.05924714 0.025210196 -0.08242243 -0.076529406
000270 64 a5 9d bc fa 1a 38 bd 3e fd 4e 3d a5 80 78 bd
       -0.019243903 -0.0449476 0.05053448 -0.06066956
000280 34 d9 81 bd 58 89 84 bc 70 78 f2 bd bf 87 0c bd
       -0.06340256 -0.016178772 -0.11839378 -0.034309145
000290 27 b0 56 bb 46 11 ac 3c 90 6e 66 bd e3 28 8a bd
       -0.0032758804 0.02100433 -0.056257784 -0.0674608
0002a0 2f ae 13 bd 1b b1 b2 bd 7f 52 0b bd ca a5 29 bd
       -0.036054786 -0.087251864 -0.03401422 -0.041417874
0002b0 7f 30 f4 bc 71 6b 7b bd 1e 41 ac 3c d4 d5 0a bc
       -0.029808281 -0.06138176 0.021027144 -0.008473832
0002c0 b8 33 49 bd 14 6c 1f bc b1 8b c6 bd f9 fa c0 bd
       -0.04912159 -0.009730358 -0.09694613 -0.09422869
0002d0 ab 97 90 3d ea 07 c4 bd 20 fd e8 bd c6 66 f9 bc
       0.07060178 -0.09571822 -0.11376405 -0.030444514
0002e0 9e 8e 23 3d 64 da 80 3c d4 fd b5 bd 0f 6f dc bd
       0.039930932 0.015729137 -0.088863045 -0.1076337
0002f0 9b 81 6a bd 1f 4c 7b bd ef ac ec 3c 00 2d e5 bd
       -0.057252508 -0.06135189 0.028891055 -0.11190224
000300 12 7a 4b bd b9 b7 e0 3c 5b 6d c2 bc ad 35 03 3c
       -0.049676962 0.027431356 -0.023733785 0.008008403
000310 78 c4 b9 bd 36 5c 02 be 4a fa e1 bc 4b ec 89 3d
       -0.090706766 -0.12730488 -0.027585167 0.067345224
000320 48 48 16 bd 1d 58 3e bd de 32 70 bd 7a d3 16 3d
       -0.036690027 -0.04647075 -0.05864226 0.036822774
000330 04 f6 5b bd 7d d4 8f bc 83 3b 89 bd 58 95 fd 3b
       -0.053701416 -0.017557377 -0.06700804 0.0077387504
000340 19 0a 8e bd a2 cc 82 3d 2a 7b 10 3d 2a 73 36 3c
       -0.0693552 0.06386687 0.03527371 0.011135856
000350 9a 68 cc bd 4a dc 7d bd 6f 08 fe bc 08 43 81 3c
       -0.09980889 -0.061977662 -0.03100988 0.015779033
000360 2f 5a a2 bb 1b 42 15 bd 0a c7 a8 3c 7d e2 7f bd
       -0.0049545984 -0.036439996 0.020602722 -0.062471855
000370 de b1 53 3d 15 57 ad bd 54 4e 65 bd ae 92 85 bc
       0.0516833 -0.08463875 -0.055982903 -0.016305294
000380 2e ba 67 bd 36 98 52 3d 0e 11 13 3d 1c 14 ef bc
       -0.05657404 0.05141469 0.035904936 -0.029184394
000390 1e 44 a8 bd c2 08 82 3c 18 c4 06 bc ca 46 73 bd
       -0.08216117 0.015873317 -0.008225463 -0.05939368
0003a0 1c 8a e2 bb e5 31 20 3d ae 7d e3 bd 94 9d cf bd
       -0.0069134366 0.039110083 -0.11107956 -0.101374775
0003b0 24 17 a9 bd d5 0c 79 bc d6 08 8b bc 10 48 86 bd
       -0.08256367 -0.015200813 -0.016971987 -0.065567136
0003c0 80 20 08 bc c8 b2 ca bd 0b d8 d0 bd 34 d4 ab 3c
       -0.00830853 -0.09897381 -0.10197457 0.02097521
0003d0 7d 8d d7 bd 7e 08 2c bd 5d 9f 47 3d 30 58 f5 bd
       -0.105250336 -0.042000286 0.048735965 -0.11979711
0003e0 f9 17 61 bd 99 34 b2 38 cb fe 2a bd 3b d9 e1 3b
       -0.054954503 8.4974985e-05 -0.041746896 0.006892351
0003f0 c0 32 db bc 9f 13 3a bd 8d 7d 91 bd 7a bb 1b 3d
       -0.026757598 -0.04542887 -0.07104025 0.03802059

fc2.bias f4 [128]
000000 03 16 43 40 52 ad 65 bd 77 76 63 40 c7 9a 55 40
       3.0482185 -0.056073494 3.5541055 3.3375719
000010 c0 74 10 40 a5 54 00 40 f6 43 09 40 3e db 39 3f
       2.2571259 2.0051663 2.144773 0.7260016
000020 bf fc d9 3f 3c fb f2 bd a1 e9 ea bd 3c 04 53 40
       1.7030257 -0.118643254 -0.114703424 3.2971334
000030 f0 0a 84 3f 5e f3 1b be 4b 08 27 40 ff 13 01 be
       1.0315838 -0.15229556 2.6098812 -0.12605284
000040 04 25 ca bd 3d 5a 7b be 23 4b 91 bd 95 3c 63 40
       -0.098703414 -0.24546142 -0.07094409 3.5505726
000050 80 aa 2d 40 14 4c f8 bd dd 61 57 3e 6b 5c 03 40
       2.7135315 -0.12123886 0.21033426 2.0525157
000060 5c 43 93 3f 03 5a 6b bf 64 78 bb 3f d0 9c 20 3f
       1.1504931 -0.9193422 1.4646115 0.62739277
000070 07 6c ab bd c7 82 bd 3f de bf c6 bd 39 47 16 40
       -0.08370214 1.4805535 -0.097045645 2.348097
000080 11 b6 be 3f 3a 78 ea 3f 7c ae 6f 40 d6 9c 8f 40
       1.4899312 1.831794 3.7450247 4.487895
000090 b8 de 83 bd 32 eb 55 40 b9 5e 1e 40 a5 b8 e3 be
       -0.064389646 3.3424802 2.4745314 -0.4447681
0000a0 7c d2 8f bd 48 aa 75 40 83 88 d5 3f 1b 4b 7b 40
       -0.070225686 3.8385181 1.6682285 3.926459
0000b0 c9 88 20 40 f4 27 22 40 b2 95 08 be 45 8b a4 3f
       2.5083487 2.5336885 -0.13338354 1.2855002
0000c0 bb 39 59 40 e5 69 d4 3f 2a ee 5f 40 6c 98 75 40
       3.3941486 1.6594816 3.4989114 3.837428
0000d0 e5 7e db 3f 70 a5 59 3f 16 b4 4e 40 f6 6f c8 bc
       1.71481 0.8501806 3.2297416 -0.02446745
0000e0 d2 06 db bd bd fd b6 bd ef 1e 51 40 ad 64 70 40
       -0.1069466 -0.089351155 3.267513 3.7561448
0000f0 a5 74 68 40 37 c8 98 3f 6d d8 90 40 ed c1 57 40
       3.6321194 1.1936101 4.526419 3.3712113
000100 4f 8f 03 40 23 f5 4c 3e 1f 76 1d 40 dc 23 53 3f
       2.0556219 0.20015387 2.4603345 0.8247659
000110 21 72 e9 3f c0 de 0c be 15 98 40 3f 0e bb 51 40
       1.8237954 -0.13756847 0.7523206 3.277042
000120 cb d1 2c 40 12 90 f7 3f 4b df 4d 40 31 30 49 40
       2.7003047 1.9340842 3.2167537 3.1435664
000130 42 36 f2 3f 4e 38 94 40 da f5 ec 3f cf 7b 23 40
       1.8922808 4.631873 1.8512528 2.5544317
000140 01 5a ff 3f 09 58 15 be 79 a3 89 40 ff 07 3a 40
       1.9949342 -0.14584364 4.301205 2.906738
000150 d8 15 3b 40 af b0 30 40 7e 62 65 40 9d 18 19 40
       2.9232082 2.760784 3.5841365 2.3921273
000160 c6 e8 8c 40 0e 0d e5 3f d7 fe ec 3f 4e 87 90 3e
       4.4034147 1.7894609 1.8515271 0.2822823
000170 c4 1d 32 3f 78 1f 25 40 5a 47 1a 3f 42 36 d1 bd
       0.6957667 2.5800457 0.60265124 -0.10215427
000180 2c 0d 6a 40 13 a9 ba 3c ab 0a dc ba da 6a 9c bc
       3.657054 0.022785699 -0.0016787847 -0.01909392
000190 42 bc 6a 40 6c 20 99 3f dc c1 4c 40 9f af a8 bd
       3.6677403 1.1963019 3.1993322 -0.08236622
0001a0 b9 f9 34 bd b5 e7 4d 40 ff 86 f8 3f 6c 75 f7 3f
       -0.044183467 3.2172673 1.9416198 1.9332709
0001b0 fa bd 59 40 ec cc 11 40 08 50 5d 3f 31 a6 af bd
       3.4022202 2.2781324 0.86450243 -0.0857662
0001c0 2c 87 52 40 2a 9b c8 bd 7b cc a3 3f 40 ee 66 40
       3.2895002 -0.0979522 1.2796777 3.6082916
0001d0 3a b5 2f 40 3c ba 26 40 d2 2e cc 3f 8b a3 d9 3c
       2.7454362 2.6051168 1.5951788 0.026567241
0001e0 ab 14 3b 40 97 f9 fd 3f 4b 3b b6 3f d2 a2 02 40
       2.9231365 1.9841794 1.4236845 2.0411878
0001f0 92 cd c9 3f 66 96 6b 40 e6 8c 90 40 50 09 13 40
       1.576586 3.6810546 4.5171995 2.2974434

output_layer.weight f4 [2, 128]
000000 07 c9 31 40 ef 43 5d 3b 2d 40 bf 3f 5e 9c eb 3f
       2.7778947 0.0033762415 1.494146 1.8407094
000010 bb fb f5 3f 50 55 85 c0 ad ca 6b c0 fb 33 c5 bf
       1.9217447 -4.166664 -3.6842453 -1.5406488
000020 8b 3d e9 bf 28 87 9d bb d5 42 f6 3c 7c 40 af 3f
       -1.8221906 -0.0048073716 0.030061165 1.3691554
000030 f3 a9 49 be b1 15 d3 3c 3b 58 0c 40 ee d2 46 3d
       -0.19693737 0.02576718 2.1928852 0.048541002
000040 bd 01 48 bc 4d 62 f4 bf 17 70 03 bc 74 8f c7 3f
       -0.012207446 -1.9092499 -0.00802233 1.5590653
000050 bc bd 3e c0 72 dc df ba 85 6e 1d bf ef 88 a8 3f
       -2.9803305 -0.0017079248 -0.61496764 1.3166789
000060 f0 ff 0a c0 c9 d2 92 bf 9d e5 bf 3f 47 81 c9 3f
       -2.1718712 -1.1470577 1.4991947 1.5742577
000070 46 70 0e 3d 3d 35 5f 40 44 34 de bc 6a 5c 98 3f
       0.03477504 3.4876244 -0.027124532 1.1903203
000080 21 5d 20 c0 56 eb 67 3f 2f fc bc 3f 36 9a cc 3f
       -2.5056841 0.9059347 1.476446 1.5984561
000090 a8 13 3c bc be 9c 12 40 52 1a b6 3f 0b 18 b0 3e
       -0.011479296 2.2908168 1.4226782 0.34393343
0000a0 c3 bd f8 bb 87 f1 16 40 df 44 19 c0 fb 40 c2 3f
       -0.0075909807 2.3584917 -2.3948286 1.517608
0000b0 17 3c 9a c0 07 71 c3 3f d3 c5 8a bf 10 eb 08 40
       -4.819835 1.5268868 -1.0841621 2.139347
0000c0 60 9a 0d 40 6f c3 4c 40 bd e4 b1 3f 20 51 c1 3f
       2.2125473 3.1994283 1.389793 1.5102882
0000d0 4b 91 16 c0 7c a8 2a c0 82 0e 8b 40 1b 29 68 3c
       -2.352618 -2.6665335 4.345521 0.014169957
0000e0 76 60 c5 be c4 6c 38 bc e0 cc 0d 40 a7 2d e5 3f
       -0.38550156 -0.0112564005 2.2156296 1.7904557
0000f0 9e 58 de 3f 72 7f a2 3f 7e 33 ce 3f 49 c3 7e 40
       1.7370794 1.2695143 1.6109464 3.9806693
000100 8d dd 87 3f 32 30 44 3d 98 be c8 3f e4 fe 03 3f
       1.0614487 0.047897525 1.5683165 0.5156081
000110 65 5c 16 40 4c d5 f7 3d 49 1a 21 c0 0a 50 bc 3f
       2.3493893 0.1210123 -2.5172293 1.4711926
000120 4c 25 4f 40 4c 7b 75 40 e5 7e 0f 40 6a 05 92 3f
       3.2366514 3.8356504 2.24212 1.1407902
000130 2d 61 ec bf e5 6f da 3f 23 9c d8 bf a1 f8 97 40
       -1.8467156 1.7065398 -1.6922649 4.7491
000140 da 3f ff bf 55 5c b3 bb 80 76 d5 3f 69 3f e5 3f
       -1.9941361 -0.0054736533 1.6676788 1.7909976
000150 bc 90 e2 3f 85 df cc 3f 9d c2 bb 3f b0 82 29 c0
       1.770042 1.6005713 1.4668766 -2.6486015
000160 dc 4a e5 3f 8f f6 1a bf d9 c5 1b 40 49 c4 d9 3f
       1.791347 -0.6053247 2.4339507 1.7013026
000170 9c fd 48 c0 10 20 9b 3f 88 9d 5e 3f e9 14 b3 bc
       -3.140479 1.211916 0.86959124 -0.021860557
000180 31 0d f4 3f 41 98 6f 3f ce e4 a8 3b d7 99 82 bc
       1.9066526 0.93591696 0.005154229 -0.015942497
000190 e4 a3 ec 3f 35 5f ed 3f 96 a0 bd 3f 7a 89 ea 3c
       1.8487515 1.854468 1.4814632 0.028630007
0001a0 7e 7d d4 3c 04 e2 1a 40 11 bd 43 c0 a2 ca ee be
       0.025938746 2.420045 -3.0584147 -0.46638972
0001b0 49 3d b5 3f fe 6c 9e 3f ce 00 02 c0 84 94 1f bd
       1.4159328 1.2377012 -2.031299 -0.038959995
0001c0 d0 c9 13 40 8d c2 dc bc aa 94 d8 3f b3 55 b9 3f
       2.3091927 -0.026948238 1.6920369 1.4479278
0001d0 56 aa b5 3f 10 8a 28 c0 51 93 10 c0 7c 19 09 bf
       1.4192607 -2.6334267 -2.2589915 -0.5355451
0001e0 ac 94 b7 3f 32 75 27 c0 40 99 15 c0 57 b9 bc bf
       1.4342246 -2.616528 -2.3374786 -1.4744061
0001f0 a8 31 b1 bf 5f f1 bc 3f 37 27 ce 3f 75 ba 67 bf
       -1.3843279 1.4761161 1.6105717 -0.90518886
000200 8e ca 0b 40 dc f4 9c bd 1c 44 28 40 56 2d 3e 40
       2.184238 -0.07663891 2.629157 2.971517
000210 7b 1c 62 40 06 d9 b3 c0 50 52 70 c0 9e 59 23 c0
       3.5329883 -5.620242 -3.755024 -2.5523448
000220 0c be 2c c0 96 ad 64 3d f7 b1 65 3c dc 14 d6 3f
       -2.6990995 0.055829607 0.014019481 1.6725116
000230 83 70 c3 bf f4 8b df ba c6 32 01 40 14 85 41 3c
       -1.5268711 -0.0017055259 2.018724 0.011811513
000240 11 7b 95 bd f7 7e 65 bf fb d2 a9 bb 83 ff fc 3f
       -0.07298864 -0.8964686 -0.0051826215 1.9765476
000250 ef b4 22 c0 65 03 81 3d cc 5a 4c 3f e3 fb e2 3f
       -2.5422933 0.062994756 0.79826045 1.773312
000260 32 7e 11 c0 47 7d 75 bf 81 e4 de bf b9 fb 32 3f
       -2.2733274 -0.95894283 -1.7413484 0.6991535
000270 ac cd bd bc f5 90 5c 40 cb 05 05 bc ae 21 9e 3f
       -0.023169361 3.4463475 -0.008119057 1.2354028
000280 6e b5 21 c0 39 13 95 3f b3 f4 f4 3f 4f 6d 04 40
       -2.5266986 1.1646491 1.9137176 2.0691717
000290 0d 39 5f bd 62 5b 40 40 00 35 f8 3f 2f 48 07 3d
       -0.054497767 3.0055776 1.9391174 0.033027824
0002a0 71 71 58 3b d0 48 2e 40 89 94 c9 bf f0 81 0b 40
       0.00330266 2.7231941 -1.5748454 2.1798058
0002b0 b5 df 0d c0 2a 0e 7d 3f 58 e2 bd bf d4 68 0d 3f
       -2.216779 0.9884974 -1.48347 0.5523808
0002c0 0b e4 04 40 b3 c9 f8 3f 68 99 f7 3f 26 ef 18 40
       2.0764186 1.9436554 1.9343691 2.3895965
0002d0 de e5 16 c0 51 e2 65 c0 b6 6e 60 40 1c 85 5d 3c
       -2.35778 -3.5919383 3.5067573 0.013520505
0002e0 58 6b 30 3e 15 e1 f8 3c 89 b2 13 40 42 f5 1d 40
       0.17228448 0.030380765 2.307772 2.4680943
0002f0 e3 b9 00 40 5a ba d0 3f 0c 2d 03 40 a0 d8 96 40
       2.0113456 1.630687 2.0496244 4.7139435
000300 5a e3 5a 3f 4e aa 06 c0 a5 c9 95 3f 88 a8 6c bf
       0.8550316 -2.1041446 1.1702162 -0.9244466
000310 ca 34 8c 40 32 18 a0 3c 1a b3 73 c0 72 ec e9 3f
       4.381444 0.019542787 -3.8078065 1.8275282
000320 18 08 2a 40 2a 64 81 40 ae be 0a 40 4c 46 9c 3f
       2.656744 4.043477 2.1678882 1.2208953
000330 22 aa 3c c0 82 82 09 40 e8 17 11 c0 72 2d 8c 40
       -2.947884 2.1485906 -2.2670841 4.3805475
000340 a3 de 5e c0 19 60 ce bb 95 e7 06 40 39 9b 83 3f
       -3.4823387 -0.006298077 2.1078846 1.0281745
000350 c9 cc 11 40 87 42 cf 3f 4f 7e f4 3f b7 6e 4a c0
       2.278124 1.6192178 1.9101046 -3.1630075
000360 c1 af 1b 40 ce 74 7e c0 e6 1a 8d 3f 0f 9e 1b 3f
       2.4326022 -3.9758792 1.1023834 0.60788053
000370 8a ac 6a c0 82 93 99 3f 74 5a 88 3f 1d d9 f4 bb
       -3.666781 1.1998141 1.0652604 -0.007472171
000380 c1 24 2e 40 11 7a d8 3f f5 8d 73 3c 56 af e5 3c
       2.7209933 1.6912252 0.014865388 0.028037708
000390 91 b9 41 40 c2 40 db 40 6f 6a ce 3f c3 fb a2 3c
       3.026951 6.851655 1.6126231 0.01989544
0003a0 dc 34 70 3d 71 3f 0a 40 fc 01 d1 bf 2a 7d 8c c0
       0.05864416 2.1601222 -1.632873 -4.390279
0003b0 fa 99 0b 40 23 79 60 3f df 6c ac bf 0b 3b b7 3c
       2.181273 0.8768484 -1.3470725 0.022367021
0003c0 a5 1d 10 40 00 32 07 3b ac 82 fb 3f 07 ee f3 3f
       2.2518094 0.0020629168 1.9649253 1.9057015
0003d0 8e 28 bb 3f 1e fd 61 c0 5a 24 e5 bf 68 2c 40 bf
       1.4621751 -3.531074 -1.7901719 -0.7506776
0003e0 53 ea db 3f 7a b5 1a c0 ff 3d 20 c0 a4 b4 21 c0
       1.7180885 -2.4173265 -2.503784 -2.5266504
0003f0 b6 b7 02 c0 1d b6 00 40 95 ee 04 40 88 cb 47 c0
       -2.0424628 2.0111153 2.077062 -3.1217976

output_layer.bias f4 [2]
000000 2e c4 6d 40 9c d7 72 40
       3.7150989 3.7944098
