models/MountainCar-v0-10.pth (torch, 71399 bytes, 6 tensors)

fc1.weight f4 [128, 2]
0.5689873 0.6085571 -0.13744485 0.6145826 -0.4999737 0.3401386 -0.0035431385 0.37022573
0.11406402 0.63978875 -0.6432881 -0.19880253 -0.45087272 -0.24160081 0.03484813 -0.4146669
0.4685218 -0.46116248 -0.12260562 -0.31020093 -0.107441485 0.56229824 -0.2051409 0.04139883
0.14779472 0.39824182 -0.15941156 -0.011019218 0.16456527 0.5978503 -0.024411082 0.07663976
0.03407008 0.17965949 -0.17684019 0.05407524 0.14491487 0.5062726 -0.102742225 0.29419562
0.49988812 -0.5897955 0.233379 -0.2986498 0.44158268 0.5898157 -0.11783922 -0.56227446
-0.11679304 0.106059074 -0.6767685 -0.5790614 -0.3862942 -0.18211365 -0.31523785 0.6094975
-0.49366772 -0.79805547 0.23084651 -0.56396735 -0.08621282 -0.25508857 0.33059174 -0.26913393
-0.16323662 0.6062004 -0.054010127 -0.5807263 0.01316154 0.2947591 0.29529706 0.19147734
0.3883683 0.46641797 -0.3879609 -0.62326026 0.2661983 0.31155193 0.024430573 -0.66505414
0.06315416 0.34986955 0.6068819 0.43499935 0.01987008 -0.6737066 -0.40456834 0.6712844
-0.09981897 0.17359148 0.6016876 -0.57322824 -0.39891496 0.14045987 0.47665232 -0.47307104
0.15271133 -0.0034271479 0.076123774 -0.11716545 -0.45751032 -0.041408695 -0.03936743 0.516603
0.44481653 -0.13464487 0.63373166 0.610954 0.19649859 0.14322057 0.23233244 -0.2029259
-0.4364442 -0.4708273 0.121971965 0.66142064 -0.032662764 0.32665175 -0.18999743 0.22158127
0.3336124 -0.7266179 0.54121786 0.5798614 0.5452048 0.56047827 0.21039344 0.60754645
-0.25125253 0.6000981 0.24562919 -0.68320435 -0.44515777 -0.3076882 -0.63787854 -0.24647477
0.15954316 0.3000105 -0.05558075 -0.14663221 0.5512425 0.13916613 -0.58256495 0.29991484
-0.3273539 -0.43829376 0.23584004 0.44989523 0.21464184 -0.15450785 -0.049620464 0.08391758
-0.15139264 0.49907535 -0.2759358 -0.029712941 -0.6412507 0.6483732 0.043670356 0.3631721
0.26894587 0.5273467 -0.16529083 -0.4215059 -0.38270155 0.16768897 -0.011087918 -0.44403124
-0.13781992 -0.013581136 -0.29008195 -0.6463054 -0.0926549 -0.4782495 0.59040564 0.27115732
0.14975053 0.6191111 -0.25967133 0.30191746 -0.39061975 -0.31429234 -0.14620347 0.055267375
0.14918983 0.6941907 -0.13373855 -0.4044317 -0.21829242 -0.06319315 0.42468196 -0.483926
0.5360797 0.36619252 0.5249968 -0.4484697 -0.103194885 -0.5935096 0.30212155 0.39257047
-0.30488145 0.23735797 0.029131465 0.28554976 0.29662567 -0.36122057 0.18803321 -0.69999075
0.5865497 0.023987737 -0.31918982 0.27556524 -0.27535146 0.64882135 0.3401062 -0.2720448
0.32626373 0.31414157 -0.025823176 0.0916366 0.046330035 0.49209303 -0.10273531 -0.10144618
-0.1591801 0.132254 -0.34764466 -0.32047385 -0.2752234 0.32095525 -0.23904985 0.06437212
-0.32288152 0.657255 0.4960057 -0.18552351 0.6424864 0.29704028 -0.350492 -0.29928353
-0.37212747 0.11775782 -0.31194466 0.6894086 0.5642417 0.44210023 0.32358617 0.10677034
0.45936364 0.059611917 0.31420326 0.23154014 -0.072096646 -0.42396238 -0.57752436 0.67666453
00000000: 27a9 113f 66ca 1b3f 58be 0cbe 4955 1d3f
00000010: 8efc ffbe a626 ae3e 0034 68bb 3a8e bd3e
00000020: 669a e93d 32c9 233f 87ae 24bf e492 4bbe
00000030: cad8 e6be 3466 77be eabc 0e3d 384f d4be
00000040: 17e2 ef3e 7d1d ecbe a818 fbbd a8d2 9ebe
00000050: 480a dcbd c7f2 0f3f 7510 52be d291 293d
00000060: 8057 173e 5ae6 cb3e c93c 23be f389 34bc
00000070: cc83 283e b80c 193f c0f9 c7bc 4ef5 9c3d
00000080: 118d 0b3d a8f8 373e 9815 35be 007e 5d3d
00000090: 9064 143e 159b 013f 846a d2bd cfa0 963e
000000a0: 56f1 ff3e d6fc 16bf e8fa 6e3e a0e8 98be
000000b0: 2017 e23e 29fe 163f b055 f1bd 38f1 0fbf
000000c0: 3031 efbd 8035 d93d b340 2dbf 5e3d 14bf
000000d0: 5ac8 c5be 007c 3abe db66 a1be 0708 1c3f
000000e0: 04c2 fcbe 5d4d 4cbf 0763 6c3e 2a60 10bf
000000f0: 5990 b0bd f89a 82be 5243 a93e eccb 89be
00000100: 8027 27be f32f 1b3f b939 5dbd 7baa 14bf
00000110: 80a3 573c aaea 963e 2d31 973e a312 443e
00000120: 36d8 c63e 56ce ee3e d0a2 c6be fc8d 1fbf
00000130: 254b 883e bc83 9f3e a022 c83c fd40 2abf
00000140: f856 813d 1a22 b33e 9d5c 1b3f 3cb8 de3e
00000150: 94c6 a23c 0978 2cbf 9523 cfbe 4bd9 2b3f
00000160: e36d ccbd f7c1 313e 3308 1a3f 16bf 12bf
00000170: 953e ccbe b6d4 0f3e c60b f43e 5e36 f2be
00000180: 5c60 1c3e 009a 60bb c8e6 9b3d 70f4 efbd
00000190: cb3e eabe 2a9c 29bd be3f 21bd 1840 043f
000001a0: febe e33e 58e0 09be 3d3c 223f 7b67 1c3f
000001b0: ed36 493e 6aa8 123e 8ee8 6d3e cfcb 4fbe
000001c0: 9d75 dfbe 4710 f1be 70cc f93d dd52 293f
000001d0: 64c9 05bd e63e a73e b08e 42be 33e6 623e
000001e0: 3fcf aa3e a103 3abf 418d 0a3f cc71 143f
000001f0: 8b92 0b3f 817b 0f3f 6171 573e 2a88 1b3f
00000200: 2ca4 80be 07a0 193f 3886 7b3e 7be6 2ebf
00000210: b8eb e3be 4f89 9dbe 024c 23bf e263 7cbe
00000220: 485f 233e fa9a 993e a4a8 63bd c126 16be
00000230: 3a1e 0d3f 9181 0e3e fa22 15bf 708e 993e
00000240: ee9a a7be 0a68 e0be 0d80 713e ab58 e63e
00000250: 12cb 5b3e 4e37 1ebe d43e 4bbd fbdc ab3d
00000260: ac06 1bbe ce86 ff3e 7547 8dbe 8e68 f3bc
00000270: 0229 24bf c9fb 253f b0df 323d b2f1 b93e
00000280: 46b3 893e 3100 073f 0042 29be 9fcf d7be
00000290: 75f1 c3be a8b6 2b3e 19aa 35bc 1058 e3be
000002a0: aa20 0dbe 6a83 5ebc 9f85 94be 4574 25bf
000002b0: dac1 bdbd 1edd f4be d324 173f 22d5 8a3e
000002c0: 3458 193e 117e 1e3f a4f3 84be ed94 9a3e
000002d0: 50ff c7be edea a0be 5db6 15be 0b60 623d
000002e0: 38c5 183e 7bb6 313f c2f2 08be ac11 cfbe
000002f0: 0c88 5fbe 696b 81bd ea6f d93e 26c5 f7be
00000300: 853c 093f 967d bb3e 3166 063f d29d e5be
00000310: d757 d3bd 3ff0 17bf adaf 9a3e fffe c83e
00000320: 6c19 9cbe f80d 733e 1ca5 ee3c 9433 923e
00000330: 52df 973e e7f1 b8be c78b 403e 9832 33bf
00000340: 1f28 163f ee81 c43c d96c a3be e316 8d3e
00000350: defa 8cbe 2819 263f 6622 ae3e 7549 8bbe
00000360: 0a0c a73e 2ad7 a03e 208b d3bc f8ab bb3d
00000370: 90c4 3d3d 9ef3 fb3e e466 d2bd 04c3 cfbd
00000380: 1c00 23be 986d 073e 7bfe b1be 2615 a4be
00000390: 15ea 8cbe 3f54 a43e 7cc9 74be 88d5 833d
000003a0: ba50 a5be dd41 283f 76f4 fd3e e0f9 3dbe
000003b0: fd79 243f aa15 983e b073 b3be b13b 99be
000003c0: 7e87 bebe 032b f13d 36b7 9fbe 157d 303f
000003d0: 2572 103f f65a e23e 16ad a53e 68aa da3d
000003e0: b631 eb3e a02b 743d 40df a03e dc18 6d3e
000003f0: 68a7 93bd 9911 d9be a3d8 13bf e339 2d3f

fc1.bias f4 [128]
0.512132 -0.21664593 -0.5634841 -0.24290955 0.48387095 -0.68231404 -0.30823684 0.2429217
0.21316266 -0.08542174 -0.22731355 0.15796235 0.02564764 0.2837307 0.22639062 -0.02276492
0.5935313 -0.23942232 -0.34475034 -0.1214807 -0.20791426 -0.3546589 0.7031288 -0.5072518
-0.5426065 0.69865495 0.56475616 0.1658704 -0.38258305 0.07020947 0.56129235 -0.39231408
-0.59249496 -0.06667401 -0.032726467 0.6271095 -0.15722334 0.18613619 0.78544575 -0.6195901
-0.36331427 0.8194276 0.4406488 -0.4730745 0.7155619 -0.39760467 0.4436519 0.15763974
-0.69944894 -0.6769896 0.7554657 -0.08137859 -0.038684845 0.7262862 0.6597886 0.8054945
-0.34032494 -0.12524027 0.37869173 0.54772866 0.4789472 0.16169955 0.04301673 0.21640477
-0.306633 -0.29002166 0.77919424 -0.60725415 -0.09792936 0.18013908 0.6110205 0.33769464
-0.60988307 0.37206557 0.5242846 -0.034277033 -0.45348018 -0.1949819 -0.59478384 -0.09833348
0.5493938 0.5759672 0.5368376 -0.020497411 0.2734411 -0.20297988 -0.09579385 -0.64708656
-0.142892 0.4209903 -0.6702509 -0.1483248 -0.055552483 0.10526736 0.10461465 -0.6504139
-0.28246412 0.58958846 0.6098622 0.48168734 -0.62076885 0.28646088 -0.416342 0.18080232
0.52846 0.12993021 0.25962305 0.5231478 0.05884844 -0.10164505 -0.40277365 -0.06894668
-0.2396802 -0.29905733 0.6565816 -0.20778835 -0.5302339 -0.54743034 0.18023717 0.13242786
0.7782208 -0.5295073 0.17767012 -0.49398348 0.05617106 0.64407045 -0.61169213 -0.521813
00000000: 151b 033f 6ed8 5dbe 7e40 10bf 48bd 78be
00000010: efbd f73e 22ac 2ebf 38d1 9dbe 77c0 783e
00000020: 5047 5a3e 98f1 aebd e2c4 68be e2c0 213e
00000030: 001b d23c 2645 913e f1d2 673e 7f7d babc
00000040: abf1 173f 202b 75be 1e83 b0be e0ca f8bd
00000050: 7ae7 54be da95 b5be 4000 343f 41db 01bf
00000060: 42e8 0abf 0ddb 323f dc93 103f eed9 293e
00000070: ede1 c3be fcc9 8f3d dbb0 0f3f 64dd c8be
00000080: c0ad 17bf 628c 88bd 300c 06bd 408a 203f
00000090: 28ff 20be 7c9a 3e3e f912 493f 759d 1ebf
000000a0: 5404 babe 02c6 513f b89c e13e d236 f2be
000000b0: 112f 373f d792 cbbe 5826 e33e 506c 213e
000000c0: 160f 33bf 314f 2dbf 3366 413f d1a9 a6bd
000000d0: 0074 1ebd e4ed 393f e8e7 283f e334 4e3f
000000e0: 123f aebe fc3e 00be e2e3 c13e f237 0c3f
000000f0: 9138 f53e 9194 253e 5032 303d 3699 5d3e
00000100: 00ff 9cbe b87d 94be 4679 473f 0275 1bbf
00000110: 308f c8bd 6176 383e d76b 1c3f 50e6 ac3e
00000120: 4c21 1cbf 617f be3e 8437 063f 1366 0cbd
00000130: 8e2e e8be 56a9 47be c143 18bf 1063 c9bd
00000140: 12a5 0c3f 9672 133f 306e 093f 30ea a7bc
00000150: 7900 8c3e f5d9 4fbe 912f c4bd 77a7 25bf
00000160: 4852 12be 0a8c d73e 9095 2bbf 75e2 17be
00000170: 008b 63bd 6a96 d73d 3540 d63d 8681 26bf
00000180: 239f 90be 45ef 163f ee1f 1c3f b99f f63e
00000190: b5ea 1ebf 00ab 923e c72a d5be 3e24 393e
000001a0: 2849 073f 6d0c 053e 50ed 843e 04ed 053f
000001b0: 100b 713d 482b d0bd 5938 cebe eb33 8dbd
000001c0: ba6e 75be 0b1e 99be bb15 283f 78c6 54be
000001d0: 69bd 07bf 6524 0cbf 1890 383e 2b9b 073e
000001e0: 7a39 473f ca8d 07bf 28ef 353e 67eb fcbe
000001f0: a013 663d cde1 243f db97 1cbf 8995 05bf

fc2.weight f4 [128, 128]
0.0083521595 0.083667465 -0.07971699 0.048444293 -0.042235833 0.029668465 0.07006828 0.015910827
-0.046691258 -0.086055025 -0.054438155 0.07716278 -0.07521245 0.06469097 -0.048960343 3.1897824e-05
0.016706822 0.024810478 0.08664953 -0.06586197 0.076117344 0.02256561 0.010093048 -0.019947447
-0.046750557 0.077628195 -0.010128606 0.024414133 -0.02239761 -0.045791972 -0.080703944 0.065400474
0.076274104 0.05722063 -0.035469227 -0.049438074 0.039176144 -0.039023638 0.019751672 -0.05924532
-0.006857462 -0.07673115 -0.01624075 -0.0048233345 -0.011073033 -0.083215155 -0.04046025 0.04054057
0.0037129968 -0.029842898 0.06882809 -0.024853524 -0.0053546727 -0.015349047 0.03930775 0.00886935
0.007862583 0.0432745 0.019632908 -0.07500351 -0.033707604 0.02765166 0.019750014 -0.07373862
-0.045769338 0.07056727 0.01796229 -0.045852218 -0.08379526 -0.049898036 0.05716596 -0.040275924
0.08770772 -0.07190635 -0.08593394 0.048796292 -0.048080396 -0.0064215153 0.03690552 0.014113568
-0.018605268 -0.026450053 0.0731937 0.029377034 0.07767303 0.0005791347 0.002523418 0.06998693
-0.009762593 -0.050746486 0.013677709 -0.0056998166 -0.07211991 0.014314589 -0.08230729 -0.053909697
-0.07648854 -0.05346844 0.03662542 -0.05054807 0.039296336 0.07575564 -0.07959831 0.049719393
-0.038061336 -0.0732111 -0.08355544 0.030879663 0.034075864 0.05389636 0.045589976 -0.043986607
-0.05387169 0.06825573 -0.016098637 0.02384051 0.084477015 0.012399815 0.037786953 0.044190742
0.049443666 -0.075910926 0.03367112 -0.007728301 -0.02549471 -0.014097658 0.05516898 0.080548786
-0.006754846 0.037420265 -0.086907856 -0.07577045 -0.0041675437 0.06568783 -0.071181715 0.053418234
-0.030172931 -0.0039216024 -0.021870263 0.058139876 -0.024882294 0.05800979 0.041988958 0.059790067
0.047908336 0.0774866 -0.041554138 -0.07018922 -0.06977877 0.032659814 0.053337615 0.04987695
-0.053186078 -0.08490074 0.01270264 0.0013532978 0.048722316 -0.073676735 -0.012700524 -0.085161194
0.07597285 0.022245847 0.01266443 0.018702628 0.0692502 0.06526532 -0.016510036 -0.068016365
-0.051790003 0.050833445 0.03577535 0.072280206 0.020418003 -0.029953197 0.011542631 0.020928435
-0.0056431964 -0.03350392 0.05045531 0.059534714 -0.028622631 0.054959927 -0.047052007 -0.084841006
0.017809508 -0.008625701 -0.031215588 0.00529153 0.009989647 0.08015005 -0.057417758 -0.048047673
-0.062347114 0.064246036 -0.0065301307 0.008767366 0.030157067 -0.008531966 -0.07413244 0.032978814
-0.037144292 -0.04992133 -0.08531699 0.0174052 -0.07211882 -0.05379163 -0.0836593 0.056857966
-0.034813464 -0.09388086 0.04259046 -0.032501794 -0.082886964 -0.03341682 0.026879467 -0.081414774
0.018294893 -0.0023570345 0.019850492 -0.03332758 -0.03780764 0.020652246 -0.009751313 -0.07022886
-0.049728815 -0.08353491 0.03956739 -0.09416449 0.03656231 0.061663162 0.06540609 0.02863994
-0.07533721 -0.038535092 0.07298957 -0.08010934 -0.02904331 -0.071570836 -0.0387851 0.0510372
0.027369961 0.08617435 0.07425177 0.059748285 0.011122987 -0.01195804 0.077795364 -0.0357599
-0.09458453 -0.079374276 -0.054396164 -0.012056537 0.057141773 -0.06548118 -0.07646681 0.08253119
00000000: 7fd7 083c d959 ab3d a942 a3bd 866d 463d
00000010: 7bff 2cbd 480b f33c f57f 8f3d 6c57 823c
00000020: 553f 3fbd 9e3d b0bd 8bfa 5ebd 8507 9e3d
00000030: fc08 9abd b37c 843d a48a 48bd 07ca 0538
00000040: bfdc 883c 583f cb3c 4f75 b13d a4e2 86bd
00000050: 69e3 9b3d 84db b83c 505d 253c d468 a3bc
00000060: 837d 3fbd 88fb 9e3d 74f2 25bc 2600 c83c
00000070: 317b b7bc 5d90 3bbd 1c48 a5bd aff0 853d
00000080: 9935 9c3d 2e60 6a3d 2e48 11bd 947f 4abd
00000090: 2a77 203d 40d7 1fbd 42ce a13c 38ab 72bd
000000a0: 90b4 e0bb 3925 9dbd 520b 85bc 100d 9ebb
000000b0: ab6b 35bc b56c aabd a6b9 25bd de0d 263d
000000c0: c055 733b 1879 f4bc bef5 8c3d 9e99 cbbc
000000d0: 4076 afbb 927a 7bbc 2a01 213d c050 113c
000000e0: 10d2 003c 9a40 313d 31d5 a03c 719b 99bd
000000f0: fc10 0abd bc85 e23c c8ca a13c 4604 97bd
00000100: a178 3bbd 9385 903d a725 933c 89cf 3bbd
00000110: d99c abbd e261 4cbd db26 6a3d 5ef8 24bd
00000120: 1ba0 b33d a343 93bd 22fe afbd 9fde 473d
00000130: f3ef 44bd 936b d2bb 3e2a 173d 983c 673c
00000140: 136a 98bc c8ad d8bc 94e6 953d 1ba8 f03c
00000150: 0a13 9f3d 12d1 173a ee5f 253b 4f55 8f3d
00000160: 48f3 1fbc 8cdb 4fbd 7818 603c 87c5 babb
00000170: 9ab3 93bd bd87 6a3c b990 a8bd 6ad0 5cbd
00000180: 06a6 9cbd b901 5bbd 8904 163d 7e0b 4fbd
00000190: 32f5 203d c625 9b3d 7004 a3bd 90a6 4b3d
000001a0: 34e6 1bbd b4ef 95bd 1d1f abbd 59f7 fc3c
000001b0: 2293 0b3d 6ec2 5c3d 8ebc 3a3d 4d2b 34bd
000001c0: 90a8 5cbd a9c9 8b3d 4ae1 83bc 2c4d c33c
000001d0: 4902 ad3d 9828 4b3c 7ec6 1a3d 5a01 353d
000001e0: 7185 4a3d 3077 9bbd baea 093d b03d fdbb
000001f0: 48da d0bc ddf9 66bc def8 613d c3f6 a43d
00000200: c157 ddbb fe45 193d bffc b1bd 8a2d 9bbd
00000210: e48f 88bb 5787 863d b8c7 91bd 14cd 5a3d
00000220: 392d f7bc c980 80bb 4429 b3bc 1424 6e3d
00000230: f4d5 cbbc ac9b 6d3d 9dfc 2b3d 6ee6 743d
00000240: 883b 443d 4bb1 9e3d ac34 2abd 5ebf 8fbd
00000250: 2ce8 8ebd 4cc6 053d 8b78 5a3d c64b 4c3d
00000260: a5d9 59bd 70e0 adbd bc1e 503c 2461 b13a
00000270: 0d91 473d d4e3 96bd dc15 50bc fe68 aebd
00000280: a797 9b3d ec3c b63c 787e 4f3c 4136 993c
00000290: 0dd3 8d3d d3a9 853d 0e40 87bc 2a4c 8bbd
000002a0: c121 54bd bb36 503d 2c89 123d a507 943d
000002b0: a843 a73c 6860 f5bc 4e1d 3d3c 1c72 ab3c
000002c0: 90ea b8bb 683b 09bd 3aaa 4e3d acda 733d
000002d0: 027a eabc a91d 613d 9bb9 40bd 1fc1 adbd
000002e0: 3fe5 913c d052 0dbc d5b7 ffbc 9264 ad3b
000002f0: 9eab 233c b625 a43d e22e 6bbd a3cd 44bd
00000300: b05f 7fbd 6d93 833d b5fa d5bb 00a5 0f3c
00000310: f40b f73c a9c9 0bbc c0d2 97bd cb14 073d
00000320: 9d24 18bd 4f7a 4cbd adba aebd 5a95 8e3c
00000330: 08b3 93bd 9d54 5cbd 9155 abbd e6e3 683d
00000340: 9098 0ebd 9c44 c0bd 5673 2e3d 9a20 05bd
00000350: a4c0 a9bd 13e0 08bd 5432 dc3c cabc a6bd
00000360: 2cdf 953c 7a78 1abb 809d a23c 8082 08bd
00000370: 2fdc 1abd e62e a93c f9c3 1fbc 26d4 8fbd
00000380: 71b0 4bbd 5a14 abbd 6a11 223d 50d9 c0bd
00000390: 5cc2 153d 8392 7c3d a1f3 853d 4f9e ea3c
000003a0: 654a 9abd f9d6 1dbd 8e7b 953d 5e10 a4bd
000003b0: 3cec edbc bb93 92bd 20dd 1ebd 620c 513d
000003c0: f836 e03c 2d7c b03d 5011 983d 9eba 743d
000003d0: 303d 363c a8eb 43bc 2d53 9f3d f978 12bd
000003e0: 89b5 c1bd fb8e a2bd 83ce 5ebd c888 45bc
000003f0: 7e0d 6a3d ff1a 86bd a29a 9cbd 1d06 a93d

fc2.bias f4 [128]
-0.0759296 0.030193983 0.20587005 -0.019286595 -0.00401591 -0.021956444 0.0117476 -0.0012129812
0.03349024 -0.041689374 0.26447445 0.048868738 0.2173675 0.010113645 -0.084412865 -0.034672078
-0.044982236 -0.06704368 -0.009480804 -0.0010966943 -0.047256015 -0.083935015 0.24666274 -0.07798157
-0.070018545 -0.0041147023 -0.03169455 -0.02008766 0.030304315 0.030153325 0.3206601 0.010797105
0.10762261 0.28545633 0.0018635318 0.051733635 -0.063249186 -0.074868456 0.044801194 0.060374502
0.061354414 0.053125285 -0.020596083 -0.051702265 -0.07759855 -0.011019471 -0.07878302 -0.077993974
0.26556587 -0.03146927 0.3017344 0.025272464 -0.055930626 -0.085475564 -0.023846582 -0.044015557
-0.0282319 -0.052954704 0.32506934 0.027182205 -0.0083900895 0.053013302 -0.06277736 -0.023589581
-0.0552262 -0.034989346 -0.07486401 0.00608103 0.31408522 0.09185004 0.012939848 0.015770406
-0.031348485 0.35439807 0.034354538 -0.022534534 -0.067006566 -0.02560258 0.013034288 -0.0065453635
0.051238768 0.05656696 0.0005646646 0.0096888775 -0.017603517 -0.083005354 0.16135477 -0.0702695
-0.022036038 0.3334207 0.063049905 -0.06939595 0.38942167 -0.03775656 0.057788543 0.02098474
-0.05369245 0.05279983 0.1537616 -0.059866678 0.003251858 0.051395964 0.014325038 -0.055452775
0.32286447 -0.030643668 0.09450061 0.05711441 -0.08116819 0.030680649 0.02747833 -0.081587896
0.054584228 0.030690521 -0.016385749 0.21209918 -0.050771885 0.008006364 0.052088864 -0.01120235
0.3162381 0.022495028 0.1803795 -0.055040546 0.026525317 -0.012953155 0.025001457 -0.017847337
00000000: fa80 9bbd 5f59 f73c 99cf 523e ecfe 9dbc
00000010: e597 83bb 00de b3bc 0179 403c e5fc 9eba
00000020: 102d 093d 7ac2 2abd 3269 873e 962a 483d
00000030: 9695 5e3e b4b3 253c a7e0 acbd 4f04 0ebd
00000040: 4b3f 38bd 324e 89bd 6055 1bbc f4be 8fba
00000050: 868f 41bd 1fe6 abbd 2895 7c3e cdb4 9fbd
00000060: e265 8fbd a0d4 86bb 25d2 01bd e08e a4bc
00000070: c140 f83c 1b04 f73c 902d a43e 57e6 303c
00000080: 3e69 dc3d 5527 923e c041 f43a a6e6 533d
00000090: ca88 81bd a254 99bd 7581 373d 414b 773d
000000a0: c44e 7b3d e699 593d 1eb9 a8bc c1c5 53bd
000000b0: fdeb 9ebd 038b 34bc fe58 a1bd 4ebb 9fbd
000000c0: 40f8 873e ece5 00bd ee7c 9a3e 3308 cf3c
000000d0: 8317 65bd d00d afbd e859 c3bc a849 34bd
000000e0: 9646 e7bc 08e7 58bd 7d6f a63e 37ad de3c
000000f0: 9676 09bc 7a24 593d 6b91 80bd f03e c1bc
00000100: de34 62bd fd50 0fbd 4d52 99bd 6043 c73b
00000110: c7cf a03e e01b bc3d a801 543c f030 813c
00000120: 4567 00bd aa73 b53e 58b7 0c3d 589a b8bc
00000130: bd3a 89bd 80bc d1bc c48d 553c 7d7a d6bb
00000140: bedf 513d c2b2 673d 0006 143a 19be 1e3c
00000150: 4035 90bc b6fe a9bd 2f3a 253e 75e9 8fbd
00000160: ec84 b4bc 1eb6 aa3e 4f20 813d 771f 8ebd
00000170: 4762 c73e 9fa6 1abd aeb3 6c3d 31e8 ab3c
00000180: 9dec 5bbd a244 583d ae73 1d3e c336 75bd
00000190: 201d 553b 9384 523d 90b3 6a3c 7322 63bd
000001a0: 7e4e a53e 6e08 fbbc 8989 c13d cdf0 693d
000001b0: 823b a6bd fc55 fb3c 3c1a e13c 8e17 a7bd
000001c0: b693 5f3d b06a fb3c 683b 86bc 8730 593e
000001d0: 2ef6 4fbd 202d 033c 225b 553d 108a 37bc
000001e0: f6e9 a13e 7e47 b83c 67b5 383e 3272 61bd
000001f0: 9f4b d93c 7839 54bc dbcf cc3c 9434 92bc

output_layer.weight f4 [3, 128]
-0.07386234 0.064234465 -0.205977 0.05392378 0.068010256 0.036401145 0.026060969 0.02836129
0.070383154 0.040755056 -0.22227322 0.017838538 -0.17484027 0.025579398 0.028457373 -0.0065197265
0.006865278 0.041929938 0.07901842 -0.09044326 0.0011748406 -0.05074356 -0.0987627 0.06281312
-0.0699338 -0.07450179 -0.016704075 -0.008087836 -0.0046092314 -0.0019170037 -0.2265755 0.039150555
-0.016559955 -0.18409449 -0.016882807 0.008207351 -0.020569734 -0.012320198 -0.034971997 0.027941192
0.017446712 -0.06648438 -0.05237521 -0.065013714 0.042182036 0.0058748913 0.07419322 0.02724205
-0.21664917 -0.005697958 -0.2535088 -0.1089568 -0.014415421 0.07111024 -0.068292305 -0.0019789413
0.012969006 0.059232086 -0.17956635 0.025824422 -0.083153285 -0.067805305 0.051570933 0.006879039
-0.013137351 -0.034718502 0.037639547 0.009137673 -0.23326693 -0.017689634 -0.056803383 0.041398518
-0.07641941 -0.23874469 0.0046259314 0.0018095887 0.035588745 -0.10251973 -0.015857467 -0.01967722
0.016137414 -0.064150706 0.07589891 0.07692313 -0.061848506 0.05180486 -0.072977856 0.018233467
0.04665015 -0.22573344 0.081057556 0.00778382 -0.24124165 0.005176425 -0.061369687 0.06306768
0.063034736 0.028204061 -0.1375816 -0.01491788 -0.06574372 0.028209155 0.07703593 -0.08265582
-0.22806934 -0.054779418 -0.012144621 -0.009854818 0.06843818 0.03344135 -0.05129137 0.0069890246
0.047707222 0.03903324 -0.053660143 -0.15869077 0.0763889 0.020176329 -0.030678365 0.054493286
-0.22639774 0.060507685 -0.15734224 0.005590688 0.07273399 0.017415814 -0.017482113 0.026879482
0.065168366 -0.06842507 -0.16555856 -0.015737183 -0.04787989 -0.07249034 0.06232576 0.07612023
-0.032855492 -0.054483946 -0.22070897 -0.045533296 -0.1767512 -0.03011446 -0.01884765 0.032585762
-0.0811154 -0.0129324645 0.067851536 0.039555945 -0.018796654 -0.009626403 -0.10922648 -0.048185598
0.011665958 0.0077808425 0.006483738 0.077183925 -0.009705293 -0.027683225 -0.26484123 0.0030584116
-0.022074753 -0.1925883 0.012226619 -0.014711209 -0.0053247586 -0.06470955 0.05951486 -0.055739608
0.036039565 -0.062466368 0.048949063 -0.033670515 0.045940943 -0.065491125 0.056220137 0.037634768
-0.22537696 -6.148219e-05 -0.26841125 0.029292425 0.026751276 -0.027329914 0.05723723 -0.079499915
0.04506927 -0.06920891 -0.20277084 0.0019148618 0.03538146 -0.045399982 -0.026974268 -0.02732455
0.078831956 0.07242199 -0.003881842 -0.027354926 -0.17659512 -0.0051561627 0.06307272 -0.03691572
0.058839418 -0.26318818 -0.08104562 0.035979412 -0.0033126026 0.028958656 -0.0028783188 -0.011743756
0.049295552 0.013962574 0.07042237 -0.07237286 0.01008673 0.062096715 -0.11570294 0.07086409
-0.007764302 -0.23178008 0.075622536 -0.028214797 -0.21909073 0.050114073 -0.016296618 0.02090755
0.0695081 0.062651925 -0.13553597 0.04764255 -0.02065546 -0.057230618 -0.03013995 -0.039480723
-0.17352854 -0.0045012385 -0.0027124442 0.03985455 0.05563929 0.073834844 -0.00895161 0.021950059
0.058102675 -0.06394105 0.07063501 -0.13099352 -0.027133446 0.07624548 0.047164835 0.025587164
-0.24548927 0.03622572 -0.1746261 0.039736204 0.04384289 0.03012631 0.031466693 -0.03939648
00000000: 2345 97bd 5c8d 833d a2eb 52be 2edf 5c3d
00000010: f648 8b3d 5e19 153d d07d d53c f055 e83c
00000020: 0b25 903d c6ee 263d 979b 63be 2022 923c
00000030: 5409 33be e38b d13c 701f e93c 6ea3 d5bb
00000040: 20f6 e03b babe 2b3d 69d4 a13d 513a b9bd
00000050: 1cfd 993a 7bd8 4fbd 1944 cabd 2aa4 803d
00000060: 7439 8fbd 6594 98bd fcd6 88bc d882 04bc
00000070: 0909 97bb f843 fbba 6803 68be 555c 203d
00000080: bea8 87bc 4483 3cbe d04d 8abc 2078 063c
00000090: dc81 a8bc a8da 49bc cc3e 0fbd ede4 e43c
000000a0: 68ec 8e3c f628 88bd 6387 56bd e925 85bd
000000b0: 12c7 2c3d 2982 c03b 9df2 973d b82a df3c
000000c0: 48d9 5dbe f0b5 babb e8cb 81be be24 dfbd
000000d0: a82e 6cbc 3fa2 913d d6dc 8bbd 20b1 01bb
000000e0: f47b 543c 589d 723d 3ee0 37be bd8d d33c
000000f0: 454c aabd 82dd 8abd 0b3c 533d 9069 e13b
00000100: 0b3e 57bc fd34 0ebd ed2b 1a3d 2eb6 153c
00000110: 87dd 6ebe dae9 90bc aaaa 68bd 7e91 293d
00000120: c881 9cbd 7d79 74be 2095 973b b92f ed3a
00000130: 81c5 113d ddf5 d1bd 85e7 81bc 1f32 a1bc
00000140: 9c32 843c 7261 83bd e370 9b3d e089 9d3d
00000150: dc54 7dbd 5531 543d 6a75 95bd 5a5e 953c
00000160: 3a14 3f3d ab26 67be 8101 a63d 6a0f ff3b
00000170: 0d08 77be 009f a93b c85e 7bbd a129 813d
00000180: 5b18 813d 340c e73c 31e2 0cbe 206a 74bc
00000190: a5a4 86bd e316 e73c 03c5 9d3d 7447 a9bd
000001a0: 028b 69be 6260 60bd 3cfa 46bc 1a76 21bc
000001b0: 5129 8c3d ccf9 083d e616 52bd 3004 e53b
000001c0: a668 433d 52e1 1f3d bdca 5bbd d57f 22be
000001d0: c971 9c3d d448 a53c 3251 fbbc 5a34 5f3d
000001e0: cfd4 67be e8d6 773d 531e 21be 1732 b73b
000001f0: 8ff5 943d 9cab 8e3c a636 8fbc 5c32 dc3c
00000200: fe76 853d 7122 8cbd 2f88 29be 44eb 80bc
00000210: b41d 44bd d175 94bd 4c49 7f3d ece4 9b3d
00000220: 7b93 06bd 8f2a 5fbd 8801 62be 1f81 3abd
00000230: 44fe 34be 9ab2 f6bc 6366 9abc a678 053d
00000240: d51f a6bd b0e2 53bc bff5 8a3d 6a05 223d
00000250: 71fb 99bc 10b8 1dbc 22b2 dfbd 435e 45bd
00000260: 9322 3f3c 70f6 fe3b 8975 d43b 9b12 9e3d
00000270: f302 1fbc eec7 e2bc 4599 87be a26f 483b
00000280: 1dd6 b4bc de35 45be 2852 483c 4807 71bc
00000290: 507b aebb 7186 84bd dbc5 733d 374f 64bd
000002a0: 399e 133d bcdc 7fbd d07e 483d 18ea 09bd
000002b0: 922c 3c3d 3620 86bd 1647 663d ea26 1a3d
000002c0: 38c9 66be 00f0 80b8 336d 89be abf6 ef3c
000002d0: 7e25 db3c fce2 dfbc 9671 6a3d dad0 a2bd
000002e0: 8e9a 383d 67bd 8dbd 29a3 4fbe 1afc fa3a
000002f0: 26ec 103d 55f5 39bd 24f9 dcbc bcd7 dfbc
00000300: a672 a13d fb51 943d 8066 7ebb 7017 e0bc
00000310: 5ad5 34be 07f5 a8bb 452c 813d f034 17bd
00000320: 9a01 713d 9ac0 86be 3ffb a5bd 265f 133d
00000330: 4018 59bb b43a ed3c 2da2 3cbb e268 40bc
00000340: 22ea 493d 48c3 643c 9b39 903d 3938 94bd
00000350: d042 253c 2059 7e3d aaf5 ecbd 3121 913d
00000360: b06b febb c257 6dbe fddf 9a3d b822 e7bc
00000370: 5259 60be 6a44 4d3d 7c80 85bc 4f46 ab3c
00000380: 435a 8e3d a74f 803d f1c9 0abe d624 433d
00000390: a435 a9bc a76a 6abd 0ee8 f6bc 8ab6 21bd
000003a0: 77b1 31be 207f 93bb 43c3 31bb 863e 233d
000003b0: 06e6 633d b936 973d c6a9 12bc 9cd0 b33c
000003c0: 12fd 6d3d 86f3 82bd 17a9 903d 2a23 06be
000003d0: f646 debc 9726 9c3d ea2f 413d 2c9c d13c
000003e0: 8a61 7bbe 6c61 143d 2fd1 32be 6ec2 223d
000003f0: 9a94 333d 74cb f63c 38e3 003d 345e 21bd

output_layer.bias f4 [3]
-0.304313 -0.30542657 -0.27111137
00000000: eace 9bbe df60 9cbe 1ccf 8abe
